{"format": "graph-model", "generatedBy": "2.5.0", "convertedBy": "TensorFlow.js Converter v4.22.0", "signature": {"inputs": {"input_4": {"name": "input_4:0", "dtype": "DT_FLOAT", "tensorShape": {"dim": [{"size": "-1"}, {"size": "-1"}, {"size": "-1"}, {"size": "1"}]}}}, "outputs": {"efficientnetlite0": {"name": "Identity:0", "dtype": "DT_HALF", "tensorShape": {"dim": [{"size": "-1"}, {"size": "6507"}]}}}}, "modelTopology": {"node": [{"name": "StatefulPartitionedCall/sequential_1/preprocess_tf/PartitionedCall/Const", "op": "Const", "attr": {"value": {"tensor": {"dtype": "DT_INT32", "tensorShape": {"dim": [{"size": "4"}]}}}, "dtype": {"type": "DT_INT32"}}}, {"name": "StatefulPartitionedCall/sequential_1/preprocess_tf/PartitionedCall/resize/size", "op": "Const", "attr": {"value": {"tensor": {"dtype": "DT_INT32", "tensorShape": {"dim": [{"size": "2"}]}}}, "dtype": {"type": "DT_INT32"}}}, {"name": "StatefulPartitionedCall/sequential_1/efficientnetlite0/stem_conv_pad/Pad/paddings", "op": "Const", "attr": {"value": {"tensor": {"dtype": "DT_INT32", "tensorShape": {"dim": [{"size": "4"}, {"size": "2"}]}}}, "dtype": {"type": "DT_INT32"}}}, {"name": "StatefulPartitionedCall/sequential_1/efficientnetlite0/block2a_dwconv_pad/Pad/paddings", "op": "Const", "attr": {"value": {"tensor": {"dtype": "DT_INT32", "tensorShape": {"dim": [{"size": "4"}, {"size": "2"}]}}}, "dtype": {"type": "DT_INT32"}}}, {"name": "StatefulPartitionedCall/sequential_1/efficientnetlite0/block3a_dwconv_pad/Pad/paddings", "op": "Const", "attr": {"value": {"tensor": {"dtype": "DT_INT32", "tensorShape": {"dim": [{"size": "4"}, {"size": "2"}]}}}, "dtype": {"type": "DT_INT32"}}}, {"name": "StatefulPartitionedCall/sequential_1/efficientnetlite0/block4a_dwconv_pad/Pad/paddings", "op": "Const", "attr": {"value": {"tensor": {"dtype": "DT_INT32", "tensorShape": {"dim": [{"size": "4"}, {"size": "2"}]}}}, "dtype": {"type": "DT_INT32"}}}, {"name": "StatefulPartitionedCall/sequential_1/efficientnetlite0/block6a_dwconv_pad/Pad/paddings", "op": "Const", "attr": {"value": {"tensor": {"dtype": "DT_INT32", "tensorShape": {"dim": [{"size": "4"}, {"size": "2"}]}}}, "dtype": {"type": "DT_INT32"}}}, {"name": "StatefulPartitionedCall/sequential_1/efficientnetlite0/avg_pool/Mean/reduction_indices", "op": "Const", "attr": {"value": {"tensor": {"dtype": "DT_INT32", "tensorShape": {"dim": [{"size": "2"}]}}}, "dtype": {"type": "DT_INT32"}}}, {"name": "StatefulPartitionedCall/sequential_1/efficientnetlite0/predictions/MatMul/Cast", "op": "Const", "attr": {"value": {"tensor": {"dtype": "DT_HALF", "tensorShape": {"dim": [{"size": "1280"}, {"size": "6507"}]}}}, "dtype": {"type": "DT_HALF"}}}, {"name": "StatefulPartitionedCall/sequential_1/efficientnetlite0/predictions/BiasAdd/Cast", "op": "Const", "attr": {"value": {"tensor": {"dtype": "DT_HALF", "tensorShape": {"dim": [{"size": "6507"}]}}}, "dtype": {"type": "DT_HALF"}}}, {"name": "input_4", "op": "Placeholder", "attr": {"shape": {"shape": {"dim": [{"size": "-1"}, {"size": "-1"}, {"size": "-1"}, {"size": "1"}]}}, "dtype": {"type": "DT_FLOAT"}}}, {"name": "StatefulPartitionedCall/sequential_1/efficientnetlite0/stem_conv/Conv2D_weights", "op": "Const", "attr": {"value": {"tensor": {"dtype": "DT_HALF", "tensorShape": {"dim": [{"size": "3"}, {"size": "3"}, {"size": "1"}, {"size": "32"}]}}}, "dtype": {"type": "DT_HALF"}}}, {"name": "StatefulPartitionedCall/sequential_1/efficientnetlite0/stem_conv/Conv2D_bn_offset", "op": "Const", "attr": {"value": {"tensor": {"dtype": "DT_FLOAT", "tensorShape": {"dim": [{"size": "32"}]}}}, "dtype": {"type": "DT_FLOAT"}}}, {"name": "StatefulPartitionedCall/sequential_1/efficientnetlite0/block1a_dwconv/depthwise_weights", "op": "Const", "attr": {"value": {"tensor": {"dtype": "DT_HALF", "tensorShape": {"dim": [{"size": "3"}, {"size": "3"}, {"size": "32"}, {"size": "1"}]}}}, "dtype": {"type": "DT_HALF"}}}, {"name": "StatefulPartitionedCall/sequential_1/efficientnetlite0/block1a_dwconv/depthwise_bn_offset", "op": "Const", "attr": {"value": {"tensor": {"dtype": "DT_FLOAT", "tensorShape": {"dim": [{"size": "32"}]}}}, "dtype": {"type": "DT_FLOAT"}}}, {"name": "StatefulPartitionedCall/sequential_1/efficientnetlite0/block1a_project_conv/Conv2D_weights", "op": "Const", "attr": {"value": {"tensor": {"dtype": "DT_HALF", "tensorShape": {"dim": [{"size": "1"}, {"size": "1"}, {"size": "32"}, {"size": "16"}]}}}, "dtype": {"type": "DT_HALF"}}}, {"name": "StatefulPartitionedCall/sequential_1/efficientnetlite0/block1a_project_conv/Conv2D_bn_offset", "op": "Const", "attr": {"value": {"tensor": {"dtype": "DT_FLOAT", "tensorShape": {"dim": [{"size": "16"}]}}}, "dtype": {"type": "DT_FLOAT"}}}, {"name": "StatefulPartitionedCall/sequential_1/efficientnetlite0/block2a_expand_conv/Conv2D_weights", "op": "Const", "attr": {"value": {"tensor": {"dtype": "DT_HALF", "tensorShape": {"dim": [{"size": "1"}, {"size": "1"}, {"size": "16"}, {"size": "96"}]}}}, "dtype": {"type": "DT_HALF"}}}, {"name": "StatefulPartitionedCall/sequential_1/efficientnetlite0/block2a_expand_conv/Conv2D_bn_offset", "op": "Const", "attr": {"value": {"tensor": {"dtype": "DT_FLOAT", "tensorShape": {"dim": [{"size": "96"}]}}}, "dtype": {"type": "DT_FLOAT"}}}, {"name": "StatefulPartitionedCall/sequential_1/efficientnetlite0/block2a_dwconv/depthwise_weights", "op": "Const", "attr": {"value": {"tensor": {"dtype": "DT_HALF", "tensorShape": {"dim": [{"size": "3"}, {"size": "3"}, {"size": "96"}, {"size": "1"}]}}}, "dtype": {"type": "DT_HALF"}}}, {"name": "StatefulPartitionedCall/sequential_1/efficientnetlite0/block2a_dwconv/depthwise_bn_offset", "op": "Const", "attr": {"value": {"tensor": {"dtype": "DT_FLOAT", "tensorShape": {"dim": [{"size": "96"}]}}}, "dtype": {"type": "DT_FLOAT"}}}, {"name": "StatefulPartitionedCall/sequential_1/efficientnetlite0/block2a_project_conv/Conv2D_weights", "op": "Const", "attr": {"value": {"tensor": {"dtype": "DT_HALF", "tensorShape": {"dim": [{"size": "1"}, {"size": "1"}, {"size": "96"}, {"size": "24"}]}}}, "dtype": {"type": "DT_HALF"}}}, {"name": "StatefulPartitionedCall/sequential_1/efficientnetlite0/block2a_project_conv/Conv2D_bn_offset", "op": "Const", "attr": {"value": {"tensor": {"dtype": "DT_FLOAT", "tensorShape": {"dim": [{"size": "24"}]}}}, "dtype": {"type": "DT_FLOAT"}}}, {"name": "StatefulPartitionedCall/sequential_1/efficientnetlite0/block2b_expand_conv/Conv2D_weights", "op": "Const", "attr": {"value": {"tensor": {"dtype": "DT_HALF", "tensorShape": {"dim": [{"size": "1"}, {"size": "1"}, {"size": "24"}, {"size": "144"}]}}}, "dtype": {"type": "DT_HALF"}}}, {"name": "StatefulPartitionedCall/sequential_1/efficientnetlite0/block2b_expand_conv/Conv2D_bn_offset", "op": "Const", "attr": {"value": {"tensor": {"dtype": "DT_FLOAT", "tensorShape": {"dim": [{"size": "144"}]}}}, "dtype": {"type": "DT_FLOAT"}}}, {"name": "StatefulPartitionedCall/sequential_1/efficientnetlite0/block2b_dwconv/depthwise_weights", "op": "Const", "attr": {"value": {"tensor": {"dtype": "DT_HALF", "tensorShape": {"dim": [{"size": "3"}, {"size": "3"}, {"size": "144"}, {"size": "1"}]}}}, "dtype": {"type": "DT_HALF"}}}, {"name": "StatefulPartitionedCall/sequential_1/efficientnetlite0/block2b_dwconv/depthwise_bn_offset", "op": "Const", "attr": {"value": {"tensor": {"dtype": "DT_FLOAT", "tensorShape": {"dim": [{"size": "144"}]}}}, "dtype": {"type": "DT_FLOAT"}}}, {"name": "StatefulPartitionedCall/sequential_1/efficientnetlite0/block2b_project_conv/Conv2D_weights", "op": "Const", "attr": {"value": {"tensor": {"dtype": "DT_HALF", "tensorShape": {"dim": [{"size": "1"}, {"size": "1"}, {"size": "144"}, {"size": "24"}]}}}, "dtype": {"type": "DT_HALF"}}}, {"name": "StatefulPartitionedCall/sequential_1/efficientnetlite0/block2b_project_conv/Conv2D_bn_offset", "op": "Const", "attr": {"value": {"tensor": {"dtype": "DT_FLOAT", "tensorShape": {"dim": [{"size": "24"}]}}}, "dtype": {"type": "DT_FLOAT"}}}, {"name": "StatefulPartitionedCall/sequential_1/efficientnetlite0/block3a_expand_conv/Conv2D_weights", "op": "Const", "attr": {"value": {"tensor": {"dtype": "DT_HALF", "tensorShape": {"dim": [{"size": "1"}, {"size": "1"}, {"size": "24"}, {"size": "144"}]}}}, "dtype": {"type": "DT_HALF"}}}, {"name": "StatefulPartitionedCall/sequential_1/efficientnetlite0/block3a_expand_conv/Conv2D_bn_offset", "op": "Const", "attr": {"value": {"tensor": {"dtype": "DT_FLOAT", "tensorShape": {"dim": [{"size": "144"}]}}}, "dtype": {"type": "DT_FLOAT"}}}, {"name": "StatefulPartitionedCall/sequential_1/efficientnetlite0/block3a_dwconv/depthwise_weights", "op": "Const", "attr": {"value": {"tensor": {"dtype": "DT_HALF", "tensorShape": {"dim": [{"size": "5"}, {"size": "5"}, {"size": "144"}, {"size": "1"}]}}}, "dtype": {"type": "DT_HALF"}}}, {"name": "StatefulPartitionedCall/sequential_1/efficientnetlite0/block3a_dwconv/depthwise_bn_offset", "op": "Const", "attr": {"value": {"tensor": {"dtype": "DT_FLOAT", "tensorShape": {"dim": [{"size": "144"}]}}}, "dtype": {"type": "DT_FLOAT"}}}, {"name": "StatefulPartitionedCall/sequential_1/efficientnetlite0/block3a_project_conv/Conv2D_weights", "op": "Const", "attr": {"value": {"tensor": {"dtype": "DT_HALF", "tensorShape": {"dim": [{"size": "1"}, {"size": "1"}, {"size": "144"}, {"size": "40"}]}}}, "dtype": {"type": "DT_HALF"}}}, {"name": "StatefulPartitionedCall/sequential_1/efficientnetlite0/block3a_project_conv/Conv2D_bn_offset", "op": "Const", "attr": {"value": {"tensor": {"dtype": "DT_FLOAT", "tensorShape": {"dim": [{"size": "40"}]}}}, "dtype": {"type": "DT_FLOAT"}}}, {"name": "StatefulPartitionedCall/sequential_1/efficientnetlite0/block3b_expand_conv/Conv2D_weights", "op": "Const", "attr": {"value": {"tensor": {"dtype": "DT_HALF", "tensorShape": {"dim": [{"size": "1"}, {"size": "1"}, {"size": "40"}, {"size": "240"}]}}}, "dtype": {"type": "DT_HALF"}}}, {"name": "StatefulPartitionedCall/sequential_1/efficientnetlite0/block3b_expand_conv/Conv2D_bn_offset", "op": "Const", "attr": {"value": {"tensor": {"dtype": "DT_FLOAT", "tensorShape": {"dim": [{"size": "240"}]}}}, "dtype": {"type": "DT_FLOAT"}}}, {"name": "StatefulPartitionedCall/sequential_1/efficientnetlite0/block3b_dwconv/depthwise_weights", "op": "Const", "attr": {"value": {"tensor": {"dtype": "DT_HALF", "tensorShape": {"dim": [{"size": "5"}, {"size": "5"}, {"size": "240"}, {"size": "1"}]}}}, "dtype": {"type": "DT_HALF"}}}, {"name": "StatefulPartitionedCall/sequential_1/efficientnetlite0/block3b_dwconv/depthwise_bn_offset", "op": "Const", "attr": {"value": {"tensor": {"dtype": "DT_FLOAT", "tensorShape": {"dim": [{"size": "240"}]}}}, "dtype": {"type": "DT_FLOAT"}}}, {"name": "StatefulPartitionedCall/sequential_1/efficientnetlite0/block3b_project_conv/Conv2D_weights", "op": "Const", "attr": {"value": {"tensor": {"dtype": "DT_HALF", "tensorShape": {"dim": [{"size": "1"}, {"size": "1"}, {"size": "240"}, {"size": "40"}]}}}, "dtype": {"type": "DT_HALF"}}}, {"name": "StatefulPartitionedCall/sequential_1/efficientnetlite0/block3b_project_conv/Conv2D_bn_offset", "op": "Const", "attr": {"value": {"tensor": {"dtype": "DT_FLOAT", "tensorShape": {"dim": [{"size": "40"}]}}}, "dtype": {"type": "DT_FLOAT"}}}, {"name": "StatefulPartitionedCall/sequential_1/efficientnetlite0/block4a_expand_conv/Conv2D_weights", "op": "Const", "attr": {"value": {"tensor": {"dtype": "DT_HALF", "tensorShape": {"dim": [{"size": "1"}, {"size": "1"}, {"size": "40"}, {"size": "240"}]}}}, "dtype": {"type": "DT_HALF"}}}, {"name": "StatefulPartitionedCall/sequential_1/efficientnetlite0/block4a_expand_conv/Conv2D_bn_offset", "op": "Const", "attr": {"value": {"tensor": {"dtype": "DT_FLOAT", "tensorShape": {"dim": [{"size": "240"}]}}}, "dtype": {"type": "DT_FLOAT"}}}, {"name": "StatefulPartitionedCall/sequential_1/efficientnetlite0/block4a_dwconv/depthwise_weights", "op": "Const", "attr": {"value": {"tensor": {"dtype": "DT_HALF", "tensorShape": {"dim": [{"size": "3"}, {"size": "3"}, {"size": "240"}, {"size": "1"}]}}}, "dtype": {"type": "DT_HALF"}}}, {"name": "StatefulPartitionedCall/sequential_1/efficientnetlite0/block4a_dwconv/depthwise_bn_offset", "op": "Const", "attr": {"value": {"tensor": {"dtype": "DT_FLOAT", "tensorShape": {"dim": [{"size": "240"}]}}}, "dtype": {"type": "DT_FLOAT"}}}, {"name": "StatefulPartitionedCall/sequential_1/efficientnetlite0/block4a_project_conv/Conv2D_weights", "op": "Const", "attr": {"value": {"tensor": {"dtype": "DT_HALF", "tensorShape": {"dim": [{"size": "1"}, {"size": "1"}, {"size": "240"}, {"size": "80"}]}}}, "dtype": {"type": "DT_HALF"}}}, {"name": "StatefulPartitionedCall/sequential_1/efficientnetlite0/block4a_project_conv/Conv2D_bn_offset", "op": "Const", "attr": {"value": {"tensor": {"dtype": "DT_FLOAT", "tensorShape": {"dim": [{"size": "80"}]}}}, "dtype": {"type": "DT_FLOAT"}}}, {"name": "StatefulPartitionedCall/sequential_1/efficientnetlite0/block4b_expand_conv/Conv2D_weights", "op": "Const", "attr": {"value": {"tensor": {"dtype": "DT_HALF", "tensorShape": {"dim": [{"size": "1"}, {"size": "1"}, {"size": "80"}, {"size": "480"}]}}}, "dtype": {"type": "DT_HALF"}}}, {"name": "StatefulPartitionedCall/sequential_1/efficientnetlite0/block4b_expand_conv/Conv2D_bn_offset", "op": "Const", "attr": {"value": {"tensor": {"dtype": "DT_FLOAT", "tensorShape": {"dim": [{"size": "480"}]}}}, "dtype": {"type": "DT_FLOAT"}}}, {"name": "StatefulPartitionedCall/sequential_1/efficientnetlite0/block4b_dwconv/depthwise_weights", "op": "Const", "attr": {"value": {"tensor": {"dtype": "DT_HALF", "tensorShape": {"dim": [{"size": "3"}, {"size": "3"}, {"size": "480"}, {"size": "1"}]}}}, "dtype": {"type": "DT_HALF"}}}, {"name": "StatefulPartitionedCall/sequential_1/efficientnetlite0/block4b_dwconv/depthwise_bn_offset", "op": "Const", "attr": {"value": {"tensor": {"dtype": "DT_FLOAT", "tensorShape": {"dim": [{"size": "480"}]}}}, "dtype": {"type": "DT_FLOAT"}}}, {"name": "StatefulPartitionedCall/sequential_1/efficientnetlite0/block4b_project_conv/Conv2D_weights", "op": "Const", "attr": {"value": {"tensor": {"dtype": "DT_HALF", "tensorShape": {"dim": [{"size": "1"}, {"size": "1"}, {"size": "480"}, {"size": "80"}]}}}, "dtype": {"type": "DT_HALF"}}}, {"name": "StatefulPartitionedCall/sequential_1/efficientnetlite0/block4b_project_conv/Conv2D_bn_offset", "op": "Const", "attr": {"value": {"tensor": {"dtype": "DT_FLOAT", "tensorShape": {"dim": [{"size": "80"}]}}}, "dtype": {"type": "DT_FLOAT"}}}, {"name": "StatefulPartitionedCall/sequential_1/efficientnetlite0/block4c_expand_conv/Conv2D_weights", "op": "Const", "attr": {"value": {"tensor": {"dtype": "DT_HALF", "tensorShape": {"dim": [{"size": "1"}, {"size": "1"}, {"size": "80"}, {"size": "480"}]}}}, "dtype": {"type": "DT_HALF"}}}, {"name": "StatefulPartitionedCall/sequential_1/efficientnetlite0/block4c_expand_conv/Conv2D_bn_offset", "op": "Const", "attr": {"value": {"tensor": {"dtype": "DT_FLOAT", "tensorShape": {"dim": [{"size": "480"}]}}}, "dtype": {"type": "DT_FLOAT"}}}, {"name": "StatefulPartitionedCall/sequential_1/efficientnetlite0/block4c_dwconv/depthwise_weights", "op": "Const", "attr": {"value": {"tensor": {"dtype": "DT_HALF", "tensorShape": {"dim": [{"size": "3"}, {"size": "3"}, {"size": "480"}, {"size": "1"}]}}}, "dtype": {"type": "DT_HALF"}}}, {"name": "StatefulPartitionedCall/sequential_1/efficientnetlite0/block4c_dwconv/depthwise_bn_offset", "op": "Const", "attr": {"value": {"tensor": {"dtype": "DT_FLOAT", "tensorShape": {"dim": [{"size": "480"}]}}}, "dtype": {"type": "DT_FLOAT"}}}, {"name": "StatefulPartitionedCall/sequential_1/efficientnetlite0/block4c_project_conv/Conv2D_weights", "op": "Const", "attr": {"value": {"tensor": {"dtype": "DT_HALF", "tensorShape": {"dim": [{"size": "1"}, {"size": "1"}, {"size": "480"}, {"size": "80"}]}}}, "dtype": {"type": "DT_HALF"}}}, {"name": "StatefulPartitionedCall/sequential_1/efficientnetlite0/block4c_project_conv/Conv2D_bn_offset", "op": "Const", "attr": {"value": {"tensor": {"dtype": "DT_FLOAT", "tensorShape": {"dim": [{"size": "80"}]}}}, "dtype": {"type": "DT_FLOAT"}}}, {"name": "StatefulPartitionedCall/sequential_1/efficientnetlite0/block5a_expand_conv/Conv2D_weights", "op": "Const", "attr": {"value": {"tensor": {"dtype": "DT_HALF", "tensorShape": {"dim": [{"size": "1"}, {"size": "1"}, {"size": "80"}, {"size": "480"}]}}}, "dtype": {"type": "DT_HALF"}}}, {"name": "StatefulPartitionedCall/sequential_1/efficientnetlite0/block5a_expand_conv/Conv2D_bn_offset", "op": "Const", "attr": {"value": {"tensor": {"dtype": "DT_FLOAT", "tensorShape": {"dim": [{"size": "480"}]}}}, "dtype": {"type": "DT_FLOAT"}}}, {"name": "StatefulPartitionedCall/sequential_1/efficientnetlite0/block5a_dwconv/depthwise_weights", "op": "Const", "attr": {"value": {"tensor": {"dtype": "DT_HALF", "tensorShape": {"dim": [{"size": "5"}, {"size": "5"}, {"size": "480"}, {"size": "1"}]}}}, "dtype": {"type": "DT_HALF"}}}, {"name": "StatefulPartitionedCall/sequential_1/efficientnetlite0/block5a_dwconv/depthwise_bn_offset", "op": "Const", "attr": {"value": {"tensor": {"dtype": "DT_FLOAT", "tensorShape": {"dim": [{"size": "480"}]}}}, "dtype": {"type": "DT_FLOAT"}}}, {"name": "StatefulPartitionedCall/sequential_1/efficientnetlite0/block5a_project_conv/Conv2D_weights", "op": "Const", "attr": {"value": {"tensor": {"dtype": "DT_HALF", "tensorShape": {"dim": [{"size": "1"}, {"size": "1"}, {"size": "480"}, {"size": "112"}]}}}, "dtype": {"type": "DT_HALF"}}}, {"name": "StatefulPartitionedCall/sequential_1/efficientnetlite0/block5a_project_conv/Conv2D_bn_offset", "op": "Const", "attr": {"value": {"tensor": {"dtype": "DT_FLOAT", "tensorShape": {"dim": [{"size": "112"}]}}}, "dtype": {"type": "DT_FLOAT"}}}, {"name": "StatefulPartitionedCall/sequential_1/efficientnetlite0/block5b_expand_conv/Conv2D_weights", "op": "Const", "attr": {"value": {"tensor": {"dtype": "DT_HALF", "tensorShape": {"dim": [{"size": "1"}, {"size": "1"}, {"size": "112"}, {"size": "672"}]}}}, "dtype": {"type": "DT_HALF"}}}, {"name": "StatefulPartitionedCall/sequential_1/efficientnetlite0/block5b_expand_conv/Conv2D_bn_offset", "op": "Const", "attr": {"value": {"tensor": {"dtype": "DT_FLOAT", "tensorShape": {"dim": [{"size": "672"}]}}}, "dtype": {"type": "DT_FLOAT"}}}, {"name": "StatefulPartitionedCall/sequential_1/efficientnetlite0/block5b_dwconv/depthwise_weights", "op": "Const", "attr": {"value": {"tensor": {"dtype": "DT_HALF", "tensorShape": {"dim": [{"size": "5"}, {"size": "5"}, {"size": "672"}, {"size": "1"}]}}}, "dtype": {"type": "DT_HALF"}}}, {"name": "StatefulPartitionedCall/sequential_1/efficientnetlite0/block5b_dwconv/depthwise_bn_offset", "op": "Const", "attr": {"value": {"tensor": {"dtype": "DT_FLOAT", "tensorShape": {"dim": [{"size": "672"}]}}}, "dtype": {"type": "DT_FLOAT"}}}, {"name": "StatefulPartitionedCall/sequential_1/efficientnetlite0/block5b_project_conv/Conv2D_weights", "op": "Const", "attr": {"value": {"tensor": {"dtype": "DT_HALF", "tensorShape": {"dim": [{"size": "1"}, {"size": "1"}, {"size": "672"}, {"size": "112"}]}}}, "dtype": {"type": "DT_HALF"}}}, {"name": "StatefulPartitionedCall/sequential_1/efficientnetlite0/block5b_project_conv/Conv2D_bn_offset", "op": "Const", "attr": {"value": {"tensor": {"dtype": "DT_FLOAT", "tensorShape": {"dim": [{"size": "112"}]}}}, "dtype": {"type": "DT_FLOAT"}}}, {"name": "StatefulPartitionedCall/sequential_1/efficientnetlite0/block5c_expand_conv/Conv2D_weights", "op": "Const", "attr": {"value": {"tensor": {"dtype": "DT_HALF", "tensorShape": {"dim": [{"size": "1"}, {"size": "1"}, {"size": "112"}, {"size": "672"}]}}}, "dtype": {"type": "DT_HALF"}}}, {"name": "StatefulPartitionedCall/sequential_1/efficientnetlite0/block5c_expand_conv/Conv2D_bn_offset", "op": "Const", "attr": {"value": {"tensor": {"dtype": "DT_FLOAT", "tensorShape": {"dim": [{"size": "672"}]}}}, "dtype": {"type": "DT_FLOAT"}}}, {"name": "StatefulPartitionedCall/sequential_1/efficientnetlite0/block5c_dwconv/depthwise_weights", "op": "Const", "attr": {"value": {"tensor": {"dtype": "DT_HALF", "tensorShape": {"dim": [{"size": "5"}, {"size": "5"}, {"size": "672"}, {"size": "1"}]}}}, "dtype": {"type": "DT_HALF"}}}, {"name": "StatefulPartitionedCall/sequential_1/efficientnetlite0/block5c_dwconv/depthwise_bn_offset", "op": "Const", "attr": {"value": {"tensor": {"dtype": "DT_FLOAT", "tensorShape": {"dim": [{"size": "672"}]}}}, "dtype": {"type": "DT_FLOAT"}}}, {"name": "StatefulPartitionedCall/sequential_1/efficientnetlite0/block5c_project_conv/Conv2D_weights", "op": "Const", "attr": {"value": {"tensor": {"dtype": "DT_HALF", "tensorShape": {"dim": [{"size": "1"}, {"size": "1"}, {"size": "672"}, {"size": "112"}]}}}, "dtype": {"type": "DT_HALF"}}}, {"name": "StatefulPartitionedCall/sequential_1/efficientnetlite0/block5c_project_conv/Conv2D_bn_offset", "op": "Const", "attr": {"value": {"tensor": {"dtype": "DT_FLOAT", "tensorShape": {"dim": [{"size": "112"}]}}}, "dtype": {"type": "DT_FLOAT"}}}, {"name": "StatefulPartitionedCall/sequential_1/efficientnetlite0/block6a_expand_conv/Conv2D_weights", "op": "Const", "attr": {"value": {"tensor": {"dtype": "DT_HALF", "tensorShape": {"dim": [{"size": "1"}, {"size": "1"}, {"size": "112"}, {"size": "672"}]}}}, "dtype": {"type": "DT_HALF"}}}, {"name": "StatefulPartitionedCall/sequential_1/efficientnetlite0/block6a_expand_conv/Conv2D_bn_offset", "op": "Const", "attr": {"value": {"tensor": {"dtype": "DT_FLOAT", "tensorShape": {"dim": [{"size": "672"}]}}}, "dtype": {"type": "DT_FLOAT"}}}, {"name": "StatefulPartitionedCall/sequential_1/efficientnetlite0/block6a_dwconv/depthwise_weights", "op": "Const", "attr": {"value": {"tensor": {"dtype": "DT_HALF", "tensorShape": {"dim": [{"size": "5"}, {"size": "5"}, {"size": "672"}, {"size": "1"}]}}}, "dtype": {"type": "DT_HALF"}}}, {"name": "StatefulPartitionedCall/sequential_1/efficientnetlite0/block6a_dwconv/depthwise_bn_offset", "op": "Const", "attr": {"value": {"tensor": {"dtype": "DT_FLOAT", "tensorShape": {"dim": [{"size": "672"}]}}}, "dtype": {"type": "DT_FLOAT"}}}, {"name": "StatefulPartitionedCall/sequential_1/efficientnetlite0/block6a_project_conv/Conv2D_weights", "op": "Const", "attr": {"value": {"tensor": {"dtype": "DT_HALF", "tensorShape": {"dim": [{"size": "1"}, {"size": "1"}, {"size": "672"}, {"size": "192"}]}}}, "dtype": {"type": "DT_HALF"}}}, {"name": "StatefulPartitionedCall/sequential_1/efficientnetlite0/block6a_project_conv/Conv2D_bn_offset", "op": "Const", "attr": {"value": {"tensor": {"dtype": "DT_FLOAT", "tensorShape": {"dim": [{"size": "192"}]}}}, "dtype": {"type": "DT_FLOAT"}}}, {"name": "StatefulPartitionedCall/sequential_1/efficientnetlite0/block6b_expand_conv/Conv2D_weights", "op": "Const", "attr": {"value": {"tensor": {"dtype": "DT_HALF", "tensorShape": {"dim": [{"size": "1"}, {"size": "1"}, {"size": "192"}, {"size": "1152"}]}}}, "dtype": {"type": "DT_HALF"}}}, {"name": "StatefulPartitionedCall/sequential_1/efficientnetlite0/block6b_expand_conv/Conv2D_bn_offset", "op": "Const", "attr": {"value": {"tensor": {"dtype": "DT_FLOAT", "tensorShape": {"dim": [{"size": "1152"}]}}}, "dtype": {"type": "DT_FLOAT"}}}, {"name": "StatefulPartitionedCall/sequential_1/efficientnetlite0/block6b_dwconv/depthwise_weights", "op": "Const", "attr": {"value": {"tensor": {"dtype": "DT_HALF", "tensorShape": {"dim": [{"size": "5"}, {"size": "5"}, {"size": "1152"}, {"size": "1"}]}}}, "dtype": {"type": "DT_HALF"}}}, {"name": "StatefulPartitionedCall/sequential_1/efficientnetlite0/block6b_dwconv/depthwise_bn_offset", "op": "Const", "attr": {"value": {"tensor": {"dtype": "DT_FLOAT", "tensorShape": {"dim": [{"size": "1152"}]}}}, "dtype": {"type": "DT_FLOAT"}}}, {"name": "StatefulPartitionedCall/sequential_1/efficientnetlite0/block6b_project_conv/Conv2D_weights", "op": "Const", "attr": {"value": {"tensor": {"dtype": "DT_HALF", "tensorShape": {"dim": [{"size": "1"}, {"size": "1"}, {"size": "1152"}, {"size": "192"}]}}}, "dtype": {"type": "DT_HALF"}}}, {"name": "StatefulPartitionedCall/sequential_1/efficientnetlite0/block6b_project_conv/Conv2D_bn_offset", "op": "Const", "attr": {"value": {"tensor": {"dtype": "DT_FLOAT", "tensorShape": {"dim": [{"size": "192"}]}}}, "dtype": {"type": "DT_FLOAT"}}}, {"name": "StatefulPartitionedCall/sequential_1/efficientnetlite0/block6c_expand_conv/Conv2D_weights", "op": "Const", "attr": {"value": {"tensor": {"dtype": "DT_HALF", "tensorShape": {"dim": [{"size": "1"}, {"size": "1"}, {"size": "192"}, {"size": "1152"}]}}}, "dtype": {"type": "DT_HALF"}}}, {"name": "StatefulPartitionedCall/sequential_1/efficientnetlite0/block6c_expand_conv/Conv2D_bn_offset", "op": "Const", "attr": {"value": {"tensor": {"dtype": "DT_FLOAT", "tensorShape": {"dim": [{"size": "1152"}]}}}, "dtype": {"type": "DT_FLOAT"}}}, {"name": "StatefulPartitionedCall/sequential_1/efficientnetlite0/block6c_dwconv/depthwise_weights", "op": "Const", "attr": {"value": {"tensor": {"dtype": "DT_HALF", "tensorShape": {"dim": [{"size": "5"}, {"size": "5"}, {"size": "1152"}, {"size": "1"}]}}}, "dtype": {"type": "DT_HALF"}}}, {"name": "StatefulPartitionedCall/sequential_1/efficientnetlite0/block6c_dwconv/depthwise_bn_offset", "op": "Const", "attr": {"value": {"tensor": {"dtype": "DT_FLOAT", "tensorShape": {"dim": [{"size": "1152"}]}}}, "dtype": {"type": "DT_FLOAT"}}}, {"name": "StatefulPartitionedCall/sequential_1/efficientnetlite0/block6c_project_conv/Conv2D_weights", "op": "Const", "attr": {"value": {"tensor": {"dtype": "DT_HALF", "tensorShape": {"dim": [{"size": "1"}, {"size": "1"}, {"size": "1152"}, {"size": "192"}]}}}, "dtype": {"type": "DT_HALF"}}}, {"name": "StatefulPartitionedCall/sequential_1/efficientnetlite0/block6c_project_conv/Conv2D_bn_offset", "op": "Const", "attr": {"value": {"tensor": {"dtype": "DT_FLOAT", "tensorShape": {"dim": [{"size": "192"}]}}}, "dtype": {"type": "DT_FLOAT"}}}, {"name": "StatefulPartitionedCall/sequential_1/efficientnetlite0/block6d_expand_conv/Conv2D_weights", "op": "Const", "attr": {"value": {"tensor": {"dtype": "DT_HALF", "tensorShape": {"dim": [{"size": "1"}, {"size": "1"}, {"size": "192"}, {"size": "1152"}]}}}, "dtype": {"type": "DT_HALF"}}}, {"name": "StatefulPartitionedCall/sequential_1/efficientnetlite0/block6d_expand_conv/Conv2D_bn_offset", "op": "Const", "attr": {"value": {"tensor": {"dtype": "DT_FLOAT", "tensorShape": {"dim": [{"size": "1152"}]}}}, "dtype": {"type": "DT_FLOAT"}}}, {"name": "StatefulPartitionedCall/sequential_1/efficientnetlite0/block6d_dwconv/depthwise_weights", "op": "Const", "attr": {"value": {"tensor": {"dtype": "DT_HALF", "tensorShape": {"dim": [{"size": "5"}, {"size": "5"}, {"size": "1152"}, {"size": "1"}]}}}, "dtype": {"type": "DT_HALF"}}}, {"name": "StatefulPartitionedCall/sequential_1/efficientnetlite0/block6d_dwconv/depthwise_bn_offset", "op": "Const", "attr": {"value": {"tensor": {"dtype": "DT_FLOAT", "tensorShape": {"dim": [{"size": "1152"}]}}}, "dtype": {"type": "DT_FLOAT"}}}, {"name": "StatefulPartitionedCall/sequential_1/efficientnetlite0/block6d_project_conv/Conv2D_weights", "op": "Const", "attr": {"value": {"tensor": {"dtype": "DT_HALF", "tensorShape": {"dim": [{"size": "1"}, {"size": "1"}, {"size": "1152"}, {"size": "192"}]}}}, "dtype": {"type": "DT_HALF"}}}, {"name": "StatefulPartitionedCall/sequential_1/efficientnetlite0/block6d_project_conv/Conv2D_bn_offset", "op": "Const", "attr": {"value": {"tensor": {"dtype": "DT_FLOAT", "tensorShape": {"dim": [{"size": "192"}]}}}, "dtype": {"type": "DT_FLOAT"}}}, {"name": "StatefulPartitionedCall/sequential_1/efficientnetlite0/block7a_expand_conv/Conv2D_weights", "op": "Const", "attr": {"value": {"tensor": {"dtype": "DT_HALF", "tensorShape": {"dim": [{"size": "1"}, {"size": "1"}, {"size": "192"}, {"size": "1152"}]}}}, "dtype": {"type": "DT_HALF"}}}, {"name": "StatefulPartitionedCall/sequential_1/efficientnetlite0/block7a_expand_conv/Conv2D_bn_offset", "op": "Const", "attr": {"value": {"tensor": {"dtype": "DT_FLOAT", "tensorShape": {"dim": [{"size": "1152"}]}}}, "dtype": {"type": "DT_FLOAT"}}}, {"name": "StatefulPartitionedCall/sequential_1/efficientnetlite0/block7a_dwconv/depthwise_weights", "op": "Const", "attr": {"value": {"tensor": {"dtype": "DT_HALF", "tensorShape": {"dim": [{"size": "3"}, {"size": "3"}, {"size": "1152"}, {"size": "1"}]}}}, "dtype": {"type": "DT_HALF"}}}, {"name": "StatefulPartitionedCall/sequential_1/efficientnetlite0/block7a_dwconv/depthwise_bn_offset", "op": "Const", "attr": {"value": {"tensor": {"dtype": "DT_FLOAT", "tensorShape": {"dim": [{"size": "1152"}]}}}, "dtype": {"type": "DT_FLOAT"}}}, {"name": "StatefulPartitionedCall/sequential_1/efficientnetlite0/block7a_project_conv/Conv2D_weights", "op": "Const", "attr": {"value": {"tensor": {"dtype": "DT_HALF", "tensorShape": {"dim": [{"size": "1"}, {"size": "1"}, {"size": "1152"}, {"size": "320"}]}}}, "dtype": {"type": "DT_HALF"}}}, {"name": "StatefulPartitionedCall/sequential_1/efficientnetlite0/block7a_project_conv/Conv2D_bn_offset", "op": "Const", "attr": {"value": {"tensor": {"dtype": "DT_FLOAT", "tensorShape": {"dim": [{"size": "320"}]}}}, "dtype": {"type": "DT_FLOAT"}}}, {"name": "StatefulPartitionedCall/sequential_1/efficientnetlite0/top_conv/Conv2D_weights", "op": "Const", "attr": {"value": {"tensor": {"dtype": "DT_HALF", "tensorShape": {"dim": [{"size": "1"}, {"size": "1"}, {"size": "320"}, {"size": "1280"}]}}}, "dtype": {"type": "DT_HALF"}}}, {"name": "StatefulPartitionedCall/sequential_1/efficientnetlite0/top_conv/Conv2D_bn_offset", "op": "Const", "attr": {"value": {"tensor": {"dtype": "DT_FLOAT", "tensorShape": {"dim": [{"size": "1280"}]}}}, "dtype": {"type": "DT_FLOAT"}}}, {"name": "StatefulPartitionedCall/sequential_1/preprocess_tf/Cast", "op": "Cast", "input": ["input_4"], "attr": {"SrcT": {"type": "DT_FLOAT"}, "DstT": {"type": "DT_HALF"}, "Truncate": {"b": false}}}, {"name": "StatefulPartitionedCall/sequential_1/preprocess_tf/PartitionedCall/Max", "op": "Max", "input": ["StatefulPartitionedCall/sequential_1/preprocess_tf/Cast", "StatefulPartitionedCall/sequential_1/preprocess_tf/PartitionedCall/Const"], "attr": {"Tidx": {"type": "DT_INT32"}, "T": {"type": "DT_HALF"}, "keep_dims": {"b": false}}}, {"name": "StatefulPartitionedCall/sequential_1/preprocess_tf/PartitionedCall/truediv", "op": "RealDiv", "input": ["StatefulPartitionedCall/sequential_1/preprocess_tf/Cast", "StatefulPartitionedCall/sequential_1/preprocess_tf/PartitionedCall/Max"], "attr": {"T": {"type": "DT_HALF"}}}, {"name": "StatefulPartitionedCall/sequential_1/preprocess_tf/PartitionedCall/resize/ResizeBilinear", "op": "ResizeBilinear", "input": ["StatefulPartitionedCall/sequential_1/preprocess_tf/PartitionedCall/truediv", "StatefulPartitionedCall/sequential_1/preprocess_tf/PartitionedCall/resize/size"], "attr": {"T": {"type": "DT_HALF"}, "align_corners": {"b": false}, "half_pixel_centers": {"b": true}}}, {"name": "StatefulPartitionedCall/sequential_1/efficientnetlite0/stem_conv_pad/Cast", "op": "Cast", "input": ["StatefulPartitionedCall/sequential_1/preprocess_tf/PartitionedCall/resize/ResizeBilinear"], "attr": {"SrcT": {"type": "DT_FLOAT"}, "DstT": {"type": "DT_HALF"}, "Truncate": {"b": false}}}, {"name": "StatefulPartitionedCall/sequential_1/efficientnetlite0/stem_conv_pad/Pad", "op": "Pad", "input": ["StatefulPartitionedCall/sequential_1/efficientnetlite0/stem_conv_pad/Cast", "StatefulPartitionedCall/sequential_1/efficientnetlite0/stem_conv_pad/Pad/paddings"], "attr": {"Tpaddings": {"type": "DT_INT32"}, "T": {"type": "DT_HALF"}}}, {"name": "StatefulPartitionedCall/sequential_1/efficientnetlite0/stem_conv/Conv2D", "op": "Conv2D", "input": ["StatefulPartitionedCall/sequential_1/efficientnetlite0/stem_conv_pad/Pad", "StatefulPartitionedCall/sequential_1/efficientnetlite0/stem_conv/Conv2D_weights"], "device": "/device:CPU:0", "attr": {"padding": {"s": "VkFMSUQ="}, "data_format": {"s": "TkhXQw=="}, "strides": {"list": {"i": ["1", "2", "2", "1"]}}, "use_cudnn_on_gpu": {"b": true}, "T": {"type": "DT_HALF"}, "explicit_paddings": {"list": {}}, "dilations": {"list": {"i": ["1", "1", "1", "1"]}}}}, {"name": "StatefulPartitionedCall/sequential_1/efficientnetlite0/stem_bn/FusedBatchNormV3", "op": "BiasAdd", "input": ["StatefulPartitionedCall/sequential_1/efficientnetlite0/stem_conv/Conv2D", "StatefulPartitionedCall/sequential_1/efficientnetlite0/stem_conv/Conv2D_bn_offset"], "attr": {"data_format": {"s": "TkhXQw=="}, "T": {"type": "DT_HALF"}}}, {"name": "StatefulPartitionedCall/sequential_1/efficientnetlite0/stem_activation/Relu6", "op": "Relu6", "input": ["StatefulPartitionedCall/sequential_1/efficientnetlite0/stem_bn/FusedBatchNormV3"], "attr": {"T": {"type": "DT_HALF"}}}, {"name": "StatefulPartitionedCall/sequential_1/efficientnetlite0/block1a_dwconv/depthwise", "op": "FusedDepthwiseConv2dNative", "input": ["StatefulPartitionedCall/sequential_1/efficientnetlite0/stem_activation/Relu6", "StatefulPartitionedCall/sequential_1/efficientnetlite0/block1a_dwconv/depthwise_weights", "StatefulPartitionedCall/sequential_1/efficientnetlite0/block1a_dwconv/depthwise_bn_offset"], "attr": {"padding": {"s": "U0FNRQ=="}, "data_format": {"s": "TkhXQw=="}, "strides": {"list": {"i": ["1", "1", "1", "1"]}}, "num_args": {"i": "1"}, "fused_ops": {"list": {"s": ["Qmlhc0FkZA==", "UmVsdTY="]}}, "T": {"type": "DT_HALF"}, "explicit_paddings": {"list": {}}, "dilations": {"list": {"i": ["1", "1", "1", "1"]}}}}, {"name": "StatefulPartitionedCall/sequential_1/efficientnetlite0/block1a_project_conv/Conv2D", "op": "Conv2D", "input": ["StatefulPartitionedCall/sequential_1/efficientnetlite0/block1a_dwconv/depthwise", "StatefulPartitionedCall/sequential_1/efficientnetlite0/block1a_project_conv/Conv2D_weights"], "device": "/device:CPU:0", "attr": {"padding": {"s": "U0FNRQ=="}, "data_format": {"s": "TkhXQw=="}, "use_cudnn_on_gpu": {"b": true}, "strides": {"list": {"i": ["1", "1", "1", "1"]}}, "T": {"type": "DT_HALF"}, "explicit_paddings": {"list": {}}, "dilations": {"list": {"i": ["1", "1", "1", "1"]}}}}, {"name": "StatefulPartitionedCall/sequential_1/efficientnetlite0/block1a_project_bn/FusedBatchNormV3", "op": "BiasAdd", "input": ["StatefulPartitionedCall/sequential_1/efficientnetlite0/block1a_project_conv/Conv2D", "StatefulPartitionedCall/sequential_1/efficientnetlite0/block1a_project_conv/Conv2D_bn_offset"], "attr": {"data_format": {"s": "TkhXQw=="}, "T": {"type": "DT_HALF"}}}, {"name": "StatefulPartitionedCall/sequential_1/efficientnetlite0/block2a_expand_conv/Conv2D", "op": "Conv2D", "input": ["StatefulPartitionedCall/sequential_1/efficientnetlite0/block1a_project_bn/FusedBatchNormV3", "StatefulPartitionedCall/sequential_1/efficientnetlite0/block2a_expand_conv/Conv2D_weights"], "device": "/device:CPU:0", "attr": {"padding": {"s": "U0FNRQ=="}, "data_format": {"s": "TkhXQw=="}, "use_cudnn_on_gpu": {"b": true}, "strides": {"list": {"i": ["1", "1", "1", "1"]}}, "T": {"type": "DT_HALF"}, "explicit_paddings": {"list": {}}, "dilations": {"list": {"i": ["1", "1", "1", "1"]}}}}, {"name": "StatefulPartitionedCall/sequential_1/efficientnetlite0/block2a_expand_bn/FusedBatchNormV3", "op": "BiasAdd", "input": ["StatefulPartitionedCall/sequential_1/efficientnetlite0/block2a_expand_conv/Conv2D", "StatefulPartitionedCall/sequential_1/efficientnetlite0/block2a_expand_conv/Conv2D_bn_offset"], "attr": {"data_format": {"s": "TkhXQw=="}, "T": {"type": "DT_HALF"}}}, {"name": "StatefulPartitionedCall/sequential_1/efficientnetlite0/block2a_expand_activation/Relu6", "op": "Relu6", "input": ["StatefulPartitionedCall/sequential_1/efficientnetlite0/block2a_expand_bn/FusedBatchNormV3"], "attr": {"T": {"type": "DT_HALF"}}}, {"name": "StatefulPartitionedCall/sequential_1/efficientnetlite0/block2a_dwconv_pad/Pad", "op": "Pad", "input": ["StatefulPartitionedCall/sequential_1/efficientnetlite0/block2a_expand_activation/Relu6", "StatefulPartitionedCall/sequential_1/efficientnetlite0/block2a_dwconv_pad/Pad/paddings"], "attr": {"Tpaddings": {"type": "DT_INT32"}, "T": {"type": "DT_HALF"}}}, {"name": "StatefulPartitionedCall/sequential_1/efficientnetlite0/block2a_dwconv/depthwise", "op": "FusedDepthwiseConv2dNative", "input": ["StatefulPartitionedCall/sequential_1/efficientnetlite0/block2a_dwconv_pad/Pad", "StatefulPartitionedCall/sequential_1/efficientnetlite0/block2a_dwconv/depthwise_weights", "StatefulPartitionedCall/sequential_1/efficientnetlite0/block2a_dwconv/depthwise_bn_offset"], "attr": {"padding": {"s": "VkFMSUQ="}, "data_format": {"s": "TkhXQw=="}, "strides": {"list": {"i": ["1", "2", "2", "1"]}}, "num_args": {"i": "1"}, "fused_ops": {"list": {"s": ["Qmlhc0FkZA==", "UmVsdTY="]}}, "T": {"type": "DT_HALF"}, "explicit_paddings": {"list": {}}, "dilations": {"list": {"i": ["1", "1", "1", "1"]}}}}, {"name": "StatefulPartitionedCall/sequential_1/efficientnetlite0/block2a_project_conv/Conv2D", "op": "Conv2D", "input": ["StatefulPartitionedCall/sequential_1/efficientnetlite0/block2a_dwconv/depthwise", "StatefulPartitionedCall/sequential_1/efficientnetlite0/block2a_project_conv/Conv2D_weights"], "device": "/device:CPU:0", "attr": {"padding": {"s": "U0FNRQ=="}, "data_format": {"s": "TkhXQw=="}, "strides": {"list": {"i": ["1", "1", "1", "1"]}}, "use_cudnn_on_gpu": {"b": true}, "T": {"type": "DT_HALF"}, "explicit_paddings": {"list": {}}, "dilations": {"list": {"i": ["1", "1", "1", "1"]}}}}, {"name": "StatefulPartitionedCall/sequential_1/efficientnetlite0/block2a_project_bn/FusedBatchNormV3", "op": "BiasAdd", "input": ["StatefulPartitionedCall/sequential_1/efficientnetlite0/block2a_project_conv/Conv2D", "StatefulPartitionedCall/sequential_1/efficientnetlite0/block2a_project_conv/Conv2D_bn_offset"], "attr": {"data_format": {"s": "TkhXQw=="}, "T": {"type": "DT_HALF"}}}, {"name": "StatefulPartitionedCall/sequential_1/efficientnetlite0/block2b_expand_conv/Conv2D", "op": "Conv2D", "input": ["StatefulPartitionedCall/sequential_1/efficientnetlite0/block2a_project_bn/FusedBatchNormV3", "StatefulPartitionedCall/sequential_1/efficientnetlite0/block2b_expand_conv/Conv2D_weights"], "device": "/device:CPU:0", "attr": {"padding": {"s": "U0FNRQ=="}, "data_format": {"s": "TkhXQw=="}, "use_cudnn_on_gpu": {"b": true}, "strides": {"list": {"i": ["1", "1", "1", "1"]}}, "T": {"type": "DT_HALF"}, "explicit_paddings": {"list": {}}, "dilations": {"list": {"i": ["1", "1", "1", "1"]}}}}, {"name": "StatefulPartitionedCall/sequential_1/efficientnetlite0/block2b_expand_bn/FusedBatchNormV3", "op": "BiasAdd", "input": ["StatefulPartitionedCall/sequential_1/efficientnetlite0/block2b_expand_conv/Conv2D", "StatefulPartitionedCall/sequential_1/efficientnetlite0/block2b_expand_conv/Conv2D_bn_offset"], "attr": {"data_format": {"s": "TkhXQw=="}, "T": {"type": "DT_HALF"}}}, {"name": "StatefulPartitionedCall/sequential_1/efficientnetlite0/block2b_expand_activation/Relu6", "op": "Relu6", "input": ["StatefulPartitionedCall/sequential_1/efficientnetlite0/block2b_expand_bn/FusedBatchNormV3"], "attr": {"T": {"type": "DT_HALF"}}}, {"name": "StatefulPartitionedCall/sequential_1/efficientnetlite0/block2b_dwconv/depthwise", "op": "FusedDepthwiseConv2dNative", "input": ["StatefulPartitionedCall/sequential_1/efficientnetlite0/block2b_expand_activation/Relu6", "StatefulPartitionedCall/sequential_1/efficientnetlite0/block2b_dwconv/depthwise_weights", "StatefulPartitionedCall/sequential_1/efficientnetlite0/block2b_dwconv/depthwise_bn_offset"], "attr": {"padding": {"s": "U0FNRQ=="}, "data_format": {"s": "TkhXQw=="}, "strides": {"list": {"i": ["1", "1", "1", "1"]}}, "num_args": {"i": "1"}, "fused_ops": {"list": {"s": ["Qmlhc0FkZA==", "UmVsdTY="]}}, "T": {"type": "DT_HALF"}, "explicit_paddings": {"list": {}}, "dilations": {"list": {"i": ["1", "1", "1", "1"]}}}}, {"name": "StatefulPartitionedCall/sequential_1/efficientnetlite0/block2b_project_conv/Conv2D", "op": "Conv2D", "input": ["StatefulPartitionedCall/sequential_1/efficientnetlite0/block2b_dwconv/depthwise", "StatefulPartitionedCall/sequential_1/efficientnetlite0/block2b_project_conv/Conv2D_weights"], "device": "/device:CPU:0", "attr": {"padding": {"s": "U0FNRQ=="}, "data_format": {"s": "TkhXQw=="}, "strides": {"list": {"i": ["1", "1", "1", "1"]}}, "use_cudnn_on_gpu": {"b": true}, "T": {"type": "DT_HALF"}, "explicit_paddings": {"list": {}}, "dilations": {"list": {"i": ["1", "1", "1", "1"]}}}}, {"name": "StatefulPartitionedCall/sequential_1/efficientnetlite0/block2b_project_bn/FusedBatchNormV3", "op": "BiasAdd", "input": ["StatefulPartitionedCall/sequential_1/efficientnetlite0/block2b_project_conv/Conv2D", "StatefulPartitionedCall/sequential_1/efficientnetlite0/block2b_project_conv/Conv2D_bn_offset"], "attr": {"data_format": {"s": "TkhXQw=="}, "T": {"type": "DT_HALF"}}}, {"name": "StatefulPartitionedCall/sequential_1/efficientnetlite0/block2b_add/add", "op": "AddV2", "input": ["StatefulPartitionedCall/sequential_1/efficientnetlite0/block2b_project_bn/FusedBatchNormV3", "StatefulPartitionedCall/sequential_1/efficientnetlite0/block2a_project_bn/FusedBatchNormV3"], "attr": {"T": {"type": "DT_HALF"}}}, {"name": "StatefulPartitionedCall/sequential_1/efficientnetlite0/block3a_expand_conv/Conv2D", "op": "Conv2D", "input": ["StatefulPartitionedCall/sequential_1/efficientnetlite0/block2b_add/add", "StatefulPartitionedCall/sequential_1/efficientnetlite0/block3a_expand_conv/Conv2D_weights"], "device": "/device:CPU:0", "attr": {"padding": {"s": "U0FNRQ=="}, "data_format": {"s": "TkhXQw=="}, "strides": {"list": {"i": ["1", "1", "1", "1"]}}, "use_cudnn_on_gpu": {"b": true}, "T": {"type": "DT_HALF"}, "explicit_paddings": {"list": {}}, "dilations": {"list": {"i": ["1", "1", "1", "1"]}}}}, {"name": "StatefulPartitionedCall/sequential_1/efficientnetlite0/block3a_expand_bn/FusedBatchNormV3", "op": "BiasAdd", "input": ["StatefulPartitionedCall/sequential_1/efficientnetlite0/block3a_expand_conv/Conv2D", "StatefulPartitionedCall/sequential_1/efficientnetlite0/block3a_expand_conv/Conv2D_bn_offset"], "attr": {"data_format": {"s": "TkhXQw=="}, "T": {"type": "DT_HALF"}}}, {"name": "StatefulPartitionedCall/sequential_1/efficientnetlite0/block3a_expand_activation/Relu6", "op": "Relu6", "input": ["StatefulPartitionedCall/sequential_1/efficientnetlite0/block3a_expand_bn/FusedBatchNormV3"], "attr": {"T": {"type": "DT_HALF"}}}, {"name": "StatefulPartitionedCall/sequential_1/efficientnetlite0/block3a_dwconv_pad/Pad", "op": "Pad", "input": ["StatefulPartitionedCall/sequential_1/efficientnetlite0/block3a_expand_activation/Relu6", "StatefulPartitionedCall/sequential_1/efficientnetlite0/block3a_dwconv_pad/Pad/paddings"], "attr": {"Tpaddings": {"type": "DT_INT32"}, "T": {"type": "DT_HALF"}}}, {"name": "StatefulPartitionedCall/sequential_1/efficientnetlite0/block3a_dwconv/depthwise", "op": "FusedDepthwiseConv2dNative", "input": ["StatefulPartitionedCall/sequential_1/efficientnetlite0/block3a_dwconv_pad/Pad", "StatefulPartitionedCall/sequential_1/efficientnetlite0/block3a_dwconv/depthwise_weights", "StatefulPartitionedCall/sequential_1/efficientnetlite0/block3a_dwconv/depthwise_bn_offset"], "attr": {"padding": {"s": "VkFMSUQ="}, "data_format": {"s": "TkhXQw=="}, "strides": {"list": {"i": ["1", "2", "2", "1"]}}, "num_args": {"i": "1"}, "fused_ops": {"list": {"s": ["Qmlhc0FkZA==", "UmVsdTY="]}}, "T": {"type": "DT_HALF"}, "explicit_paddings": {"list": {}}, "dilations": {"list": {"i": ["1", "1", "1", "1"]}}}}, {"name": "StatefulPartitionedCall/sequential_1/efficientnetlite0/block3a_project_conv/Conv2D", "op": "Conv2D", "input": ["StatefulPartitionedCall/sequential_1/efficientnetlite0/block3a_dwconv/depthwise", "StatefulPartitionedCall/sequential_1/efficientnetlite0/block3a_project_conv/Conv2D_weights"], "device": "/device:CPU:0", "attr": {"padding": {"s": "U0FNRQ=="}, "data_format": {"s": "TkhXQw=="}, "strides": {"list": {"i": ["1", "1", "1", "1"]}}, "use_cudnn_on_gpu": {"b": true}, "T": {"type": "DT_HALF"}, "explicit_paddings": {"list": {}}, "dilations": {"list": {"i": ["1", "1", "1", "1"]}}}}, {"name": "StatefulPartitionedCall/sequential_1/efficientnetlite0/block3a_project_bn/FusedBatchNormV3", "op": "BiasAdd", "input": ["StatefulPartitionedCall/sequential_1/efficientnetlite0/block3a_project_conv/Conv2D", "StatefulPartitionedCall/sequential_1/efficientnetlite0/block3a_project_conv/Conv2D_bn_offset"], "attr": {"data_format": {"s": "TkhXQw=="}, "T": {"type": "DT_HALF"}}}, {"name": "StatefulPartitionedCall/sequential_1/efficientnetlite0/block3b_expand_conv/Conv2D", "op": "Conv2D", "input": ["StatefulPartitionedCall/sequential_1/efficientnetlite0/block3a_project_bn/FusedBatchNormV3", "StatefulPartitionedCall/sequential_1/efficientnetlite0/block3b_expand_conv/Conv2D_weights"], "device": "/device:CPU:0", "attr": {"padding": {"s": "U0FNRQ=="}, "data_format": {"s": "TkhXQw=="}, "strides": {"list": {"i": ["1", "1", "1", "1"]}}, "use_cudnn_on_gpu": {"b": true}, "T": {"type": "DT_HALF"}, "explicit_paddings": {"list": {}}, "dilations": {"list": {"i": ["1", "1", "1", "1"]}}}}, {"name": "StatefulPartitionedCall/sequential_1/efficientnetlite0/block3b_expand_bn/FusedBatchNormV3", "op": "BiasAdd", "input": ["StatefulPartitionedCall/sequential_1/efficientnetlite0/block3b_expand_conv/Conv2D", "StatefulPartitionedCall/sequential_1/efficientnetlite0/block3b_expand_conv/Conv2D_bn_offset"], "attr": {"data_format": {"s": "TkhXQw=="}, "T": {"type": "DT_HALF"}}}, {"name": "StatefulPartitionedCall/sequential_1/efficientnetlite0/block3b_expand_activation/Relu6", "op": "Relu6", "input": ["StatefulPartitionedCall/sequential_1/efficientnetlite0/block3b_expand_bn/FusedBatchNormV3"], "attr": {"T": {"type": "DT_HALF"}}}, {"name": "StatefulPartitionedCall/sequential_1/efficientnetlite0/block3b_dwconv/depthwise", "op": "FusedDepthwiseConv2dNative", "input": ["StatefulPartitionedCall/sequential_1/efficientnetlite0/block3b_expand_activation/Relu6", "StatefulPartitionedCall/sequential_1/efficientnetlite0/block3b_dwconv/depthwise_weights", "StatefulPartitionedCall/sequential_1/efficientnetlite0/block3b_dwconv/depthwise_bn_offset"], "attr": {"padding": {"s": "U0FNRQ=="}, "data_format": {"s": "TkhXQw=="}, "strides": {"list": {"i": ["1", "1", "1", "1"]}}, "num_args": {"i": "1"}, "fused_ops": {"list": {"s": ["Qmlhc0FkZA==", "UmVsdTY="]}}, "T": {"type": "DT_HALF"}, "explicit_paddings": {"list": {}}, "dilations": {"list": {"i": ["1", "1", "1", "1"]}}}}, {"name": "StatefulPartitionedCall/sequential_1/efficientnetlite0/block3b_project_conv/Conv2D", "op": "Conv2D", "input": ["StatefulPartitionedCall/sequential_1/efficientnetlite0/block3b_dwconv/depthwise", "StatefulPartitionedCall/sequential_1/efficientnetlite0/block3b_project_conv/Conv2D_weights"], "device": "/device:CPU:0", "attr": {"padding": {"s": "U0FNRQ=="}, "data_format": {"s": "TkhXQw=="}, "use_cudnn_on_gpu": {"b": true}, "strides": {"list": {"i": ["1", "1", "1", "1"]}}, "T": {"type": "DT_HALF"}, "explicit_paddings": {"list": {}}, "dilations": {"list": {"i": ["1", "1", "1", "1"]}}}}, {"name": "StatefulPartitionedCall/sequential_1/efficientnetlite0/block3b_project_bn/FusedBatchNormV3", "op": "BiasAdd", "input": ["StatefulPartitionedCall/sequential_1/efficientnetlite0/block3b_project_conv/Conv2D", "StatefulPartitionedCall/sequential_1/efficientnetlite0/block3b_project_conv/Conv2D_bn_offset"], "attr": {"data_format": {"s": "TkhXQw=="}, "T": {"type": "DT_HALF"}}}, {"name": "StatefulPartitionedCall/sequential_1/efficientnetlite0/block3b_add/add", "op": "AddV2", "input": ["StatefulPartitionedCall/sequential_1/efficientnetlite0/block3b_project_bn/FusedBatchNormV3", "StatefulPartitionedCall/sequential_1/efficientnetlite0/block3a_project_bn/FusedBatchNormV3"], "attr": {"T": {"type": "DT_HALF"}}}, {"name": "StatefulPartitionedCall/sequential_1/efficientnetlite0/block4a_expand_conv/Conv2D", "op": "Conv2D", "input": ["StatefulPartitionedCall/sequential_1/efficientnetlite0/block3b_add/add", "StatefulPartitionedCall/sequential_1/efficientnetlite0/block4a_expand_conv/Conv2D_weights"], "device": "/device:CPU:0", "attr": {"padding": {"s": "U0FNRQ=="}, "data_format": {"s": "TkhXQw=="}, "use_cudnn_on_gpu": {"b": true}, "strides": {"list": {"i": ["1", "1", "1", "1"]}}, "T": {"type": "DT_HALF"}, "explicit_paddings": {"list": {}}, "dilations": {"list": {"i": ["1", "1", "1", "1"]}}}}, {"name": "StatefulPartitionedCall/sequential_1/efficientnetlite0/block4a_expand_bn/FusedBatchNormV3", "op": "BiasAdd", "input": ["StatefulPartitionedCall/sequential_1/efficientnetlite0/block4a_expand_conv/Conv2D", "StatefulPartitionedCall/sequential_1/efficientnetlite0/block4a_expand_conv/Conv2D_bn_offset"], "attr": {"data_format": {"s": "TkhXQw=="}, "T": {"type": "DT_HALF"}}}, {"name": "StatefulPartitionedCall/sequential_1/efficientnetlite0/block4a_expand_activation/Relu6", "op": "Relu6", "input": ["StatefulPartitionedCall/sequential_1/efficientnetlite0/block4a_expand_bn/FusedBatchNormV3"], "attr": {"T": {"type": "DT_HALF"}}}, {"name": "StatefulPartitionedCall/sequential_1/efficientnetlite0/block4a_dwconv_pad/Pad", "op": "Pad", "input": ["StatefulPartitionedCall/sequential_1/efficientnetlite0/block4a_expand_activation/Relu6", "StatefulPartitionedCall/sequential_1/efficientnetlite0/block4a_dwconv_pad/Pad/paddings"], "attr": {"Tpaddings": {"type": "DT_INT32"}, "T": {"type": "DT_HALF"}}}, {"name": "StatefulPartitionedCall/sequential_1/efficientnetlite0/block4a_dwconv/depthwise", "op": "FusedDepthwiseConv2dNative", "input": ["StatefulPartitionedCall/sequential_1/efficientnetlite0/block4a_dwconv_pad/Pad", "StatefulPartitionedCall/sequential_1/efficientnetlite0/block4a_dwconv/depthwise_weights", "StatefulPartitionedCall/sequential_1/efficientnetlite0/block4a_dwconv/depthwise_bn_offset"], "attr": {"padding": {"s": "VkFMSUQ="}, "data_format": {"s": "TkhXQw=="}, "strides": {"list": {"i": ["1", "2", "2", "1"]}}, "num_args": {"i": "1"}, "fused_ops": {"list": {"s": ["Qmlhc0FkZA==", "UmVsdTY="]}}, "T": {"type": "DT_HALF"}, "explicit_paddings": {"list": {}}, "dilations": {"list": {"i": ["1", "1", "1", "1"]}}}}, {"name": "StatefulPartitionedCall/sequential_1/efficientnetlite0/block4a_project_conv/Conv2D", "op": "Conv2D", "input": ["StatefulPartitionedCall/sequential_1/efficientnetlite0/block4a_dwconv/depthwise", "StatefulPartitionedCall/sequential_1/efficientnetlite0/block4a_project_conv/Conv2D_weights"], "device": "/device:CPU:0", "attr": {"padding": {"s": "U0FNRQ=="}, "data_format": {"s": "TkhXQw=="}, "use_cudnn_on_gpu": {"b": true}, "strides": {"list": {"i": ["1", "1", "1", "1"]}}, "T": {"type": "DT_HALF"}, "explicit_paddings": {"list": {}}, "dilations": {"list": {"i": ["1", "1", "1", "1"]}}}}, {"name": "StatefulPartitionedCall/sequential_1/efficientnetlite0/block4a_project_bn/FusedBatchNormV3", "op": "BiasAdd", "input": ["StatefulPartitionedCall/sequential_1/efficientnetlite0/block4a_project_conv/Conv2D", "StatefulPartitionedCall/sequential_1/efficientnetlite0/block4a_project_conv/Conv2D_bn_offset"], "attr": {"data_format": {"s": "TkhXQw=="}, "T": {"type": "DT_HALF"}}}, {"name": "StatefulPartitionedCall/sequential_1/efficientnetlite0/block4b_expand_conv/Conv2D", "op": "Conv2D", "input": ["StatefulPartitionedCall/sequential_1/efficientnetlite0/block4a_project_bn/FusedBatchNormV3", "StatefulPartitionedCall/sequential_1/efficientnetlite0/block4b_expand_conv/Conv2D_weights"], "device": "/device:CPU:0", "attr": {"padding": {"s": "U0FNRQ=="}, "data_format": {"s": "TkhXQw=="}, "use_cudnn_on_gpu": {"b": true}, "strides": {"list": {"i": ["1", "1", "1", "1"]}}, "T": {"type": "DT_HALF"}, "explicit_paddings": {"list": {}}, "dilations": {"list": {"i": ["1", "1", "1", "1"]}}}}, {"name": "StatefulPartitionedCall/sequential_1/efficientnetlite0/block4b_expand_bn/FusedBatchNormV3", "op": "BiasAdd", "input": ["StatefulPartitionedCall/sequential_1/efficientnetlite0/block4b_expand_conv/Conv2D", "StatefulPartitionedCall/sequential_1/efficientnetlite0/block4b_expand_conv/Conv2D_bn_offset"], "attr": {"data_format": {"s": "TkhXQw=="}, "T": {"type": "DT_HALF"}}}, {"name": "StatefulPartitionedCall/sequential_1/efficientnetlite0/block4b_expand_activation/Relu6", "op": "Relu6", "input": ["StatefulPartitionedCall/sequential_1/efficientnetlite0/block4b_expand_bn/FusedBatchNormV3"], "attr": {"T": {"type": "DT_HALF"}}}, {"name": "StatefulPartitionedCall/sequential_1/efficientnetlite0/block4b_dwconv/depthwise", "op": "FusedDepthwiseConv2dNative", "input": ["StatefulPartitionedCall/sequential_1/efficientnetlite0/block4b_expand_activation/Relu6", "StatefulPartitionedCall/sequential_1/efficientnetlite0/block4b_dwconv/depthwise_weights", "StatefulPartitionedCall/sequential_1/efficientnetlite0/block4b_dwconv/depthwise_bn_offset"], "attr": {"padding": {"s": "U0FNRQ=="}, "data_format": {"s": "TkhXQw=="}, "strides": {"list": {"i": ["1", "1", "1", "1"]}}, "num_args": {"i": "1"}, "fused_ops": {"list": {"s": ["Qmlhc0FkZA==", "UmVsdTY="]}}, "T": {"type": "DT_HALF"}, "explicit_paddings": {"list": {}}, "dilations": {"list": {"i": ["1", "1", "1", "1"]}}}}, {"name": "StatefulPartitionedCall/sequential_1/efficientnetlite0/block4b_project_conv/Conv2D", "op": "Conv2D", "input": ["StatefulPartitionedCall/sequential_1/efficientnetlite0/block4b_dwconv/depthwise", "StatefulPartitionedCall/sequential_1/efficientnetlite0/block4b_project_conv/Conv2D_weights"], "device": "/device:CPU:0", "attr": {"padding": {"s": "U0FNRQ=="}, "data_format": {"s": "TkhXQw=="}, "use_cudnn_on_gpu": {"b": true}, "strides": {"list": {"i": ["1", "1", "1", "1"]}}, "T": {"type": "DT_HALF"}, "explicit_paddings": {"list": {}}, "dilations": {"list": {"i": ["1", "1", "1", "1"]}}}}, {"name": "StatefulPartitionedCall/sequential_1/efficientnetlite0/block4b_project_bn/FusedBatchNormV3", "op": "BiasAdd", "input": ["StatefulPartitionedCall/sequential_1/efficientnetlite0/block4b_project_conv/Conv2D", "StatefulPartitionedCall/sequential_1/efficientnetlite0/block4b_project_conv/Conv2D_bn_offset"], "attr": {"data_format": {"s": "TkhXQw=="}, "T": {"type": "DT_HALF"}}}, {"name": "StatefulPartitionedCall/sequential_1/efficientnetlite0/block4b_add/add", "op": "AddV2", "input": ["StatefulPartitionedCall/sequential_1/efficientnetlite0/block4b_project_bn/FusedBatchNormV3", "StatefulPartitionedCall/sequential_1/efficientnetlite0/block4a_project_bn/FusedBatchNormV3"], "attr": {"T": {"type": "DT_HALF"}}}, {"name": "StatefulPartitionedCall/sequential_1/efficientnetlite0/block4c_expand_conv/Conv2D", "op": "Conv2D", "input": ["StatefulPartitionedCall/sequential_1/efficientnetlite0/block4b_add/add", "StatefulPartitionedCall/sequential_1/efficientnetlite0/block4c_expand_conv/Conv2D_weights"], "device": "/device:CPU:0", "attr": {"padding": {"s": "U0FNRQ=="}, "data_format": {"s": "TkhXQw=="}, "use_cudnn_on_gpu": {"b": true}, "strides": {"list": {"i": ["1", "1", "1", "1"]}}, "T": {"type": "DT_HALF"}, "explicit_paddings": {"list": {}}, "dilations": {"list": {"i": ["1", "1", "1", "1"]}}}}, {"name": "StatefulPartitionedCall/sequential_1/efficientnetlite0/block4c_expand_bn/FusedBatchNormV3", "op": "BiasAdd", "input": ["StatefulPartitionedCall/sequential_1/efficientnetlite0/block4c_expand_conv/Conv2D", "StatefulPartitionedCall/sequential_1/efficientnetlite0/block4c_expand_conv/Conv2D_bn_offset"], "attr": {"data_format": {"s": "TkhXQw=="}, "T": {"type": "DT_HALF"}}}, {"name": "StatefulPartitionedCall/sequential_1/efficientnetlite0/block4c_expand_activation/Relu6", "op": "Relu6", "input": ["StatefulPartitionedCall/sequential_1/efficientnetlite0/block4c_expand_bn/FusedBatchNormV3"], "attr": {"T": {"type": "DT_HALF"}}}, {"name": "StatefulPartitionedCall/sequential_1/efficientnetlite0/block4c_dwconv/depthwise", "op": "FusedDepthwiseConv2dNative", "input": ["StatefulPartitionedCall/sequential_1/efficientnetlite0/block4c_expand_activation/Relu6", "StatefulPartitionedCall/sequential_1/efficientnetlite0/block4c_dwconv/depthwise_weights", "StatefulPartitionedCall/sequential_1/efficientnetlite0/block4c_dwconv/depthwise_bn_offset"], "attr": {"padding": {"s": "U0FNRQ=="}, "data_format": {"s": "TkhXQw=="}, "strides": {"list": {"i": ["1", "1", "1", "1"]}}, "num_args": {"i": "1"}, "fused_ops": {"list": {"s": ["Qmlhc0FkZA==", "UmVsdTY="]}}, "T": {"type": "DT_HALF"}, "explicit_paddings": {"list": {}}, "dilations": {"list": {"i": ["1", "1", "1", "1"]}}}}, {"name": "StatefulPartitionedCall/sequential_1/efficientnetlite0/block4c_project_conv/Conv2D", "op": "Conv2D", "input": ["StatefulPartitionedCall/sequential_1/efficientnetlite0/block4c_dwconv/depthwise", "StatefulPartitionedCall/sequential_1/efficientnetlite0/block4c_project_conv/Conv2D_weights"], "device": "/device:CPU:0", "attr": {"padding": {"s": "U0FNRQ=="}, "data_format": {"s": "TkhXQw=="}, "use_cudnn_on_gpu": {"b": true}, "strides": {"list": {"i": ["1", "1", "1", "1"]}}, "T": {"type": "DT_HALF"}, "explicit_paddings": {"list": {}}, "dilations": {"list": {"i": ["1", "1", "1", "1"]}}}}, {"name": "StatefulPartitionedCall/sequential_1/efficientnetlite0/block4c_project_bn/FusedBatchNormV3", "op": "BiasAdd", "input": ["StatefulPartitionedCall/sequential_1/efficientnetlite0/block4c_project_conv/Conv2D", "StatefulPartitionedCall/sequential_1/efficientnetlite0/block4c_project_conv/Conv2D_bn_offset"], "attr": {"data_format": {"s": "TkhXQw=="}, "T": {"type": "DT_HALF"}}}, {"name": "StatefulPartitionedCall/sequential_1/efficientnetlite0/block4c_add/add", "op": "AddV2", "input": ["StatefulPartitionedCall/sequential_1/efficientnetlite0/block4c_project_bn/FusedBatchNormV3", "StatefulPartitionedCall/sequential_1/efficientnetlite0/block4b_add/add"], "attr": {"T": {"type": "DT_HALF"}}}, {"name": "StatefulPartitionedCall/sequential_1/efficientnetlite0/block5a_expand_conv/Conv2D", "op": "Conv2D", "input": ["StatefulPartitionedCall/sequential_1/efficientnetlite0/block4c_add/add", "StatefulPartitionedCall/sequential_1/efficientnetlite0/block5a_expand_conv/Conv2D_weights"], "device": "/device:CPU:0", "attr": {"padding": {"s": "U0FNRQ=="}, "data_format": {"s": "TkhXQw=="}, "use_cudnn_on_gpu": {"b": true}, "strides": {"list": {"i": ["1", "1", "1", "1"]}}, "T": {"type": "DT_HALF"}, "explicit_paddings": {"list": {}}, "dilations": {"list": {"i": ["1", "1", "1", "1"]}}}}, {"name": "StatefulPartitionedCall/sequential_1/efficientnetlite0/block5a_expand_bn/FusedBatchNormV3", "op": "BiasAdd", "input": ["StatefulPartitionedCall/sequential_1/efficientnetlite0/block5a_expand_conv/Conv2D", "StatefulPartitionedCall/sequential_1/efficientnetlite0/block5a_expand_conv/Conv2D_bn_offset"], "attr": {"data_format": {"s": "TkhXQw=="}, "T": {"type": "DT_HALF"}}}, {"name": "StatefulPartitionedCall/sequential_1/efficientnetlite0/block5a_expand_activation/Relu6", "op": "Relu6", "input": ["StatefulPartitionedCall/sequential_1/efficientnetlite0/block5a_expand_bn/FusedBatchNormV3"], "attr": {"T": {"type": "DT_HALF"}}}, {"name": "StatefulPartitionedCall/sequential_1/efficientnetlite0/block5a_dwconv/depthwise", "op": "FusedDepthwiseConv2dNative", "input": ["StatefulPartitionedCall/sequential_1/efficientnetlite0/block5a_expand_activation/Relu6", "StatefulPartitionedCall/sequential_1/efficientnetlite0/block5a_dwconv/depthwise_weights", "StatefulPartitionedCall/sequential_1/efficientnetlite0/block5a_dwconv/depthwise_bn_offset"], "attr": {"padding": {"s": "U0FNRQ=="}, "data_format": {"s": "TkhXQw=="}, "strides": {"list": {"i": ["1", "1", "1", "1"]}}, "num_args": {"i": "1"}, "fused_ops": {"list": {"s": ["Qmlhc0FkZA==", "UmVsdTY="]}}, "T": {"type": "DT_HALF"}, "explicit_paddings": {"list": {}}, "dilations": {"list": {"i": ["1", "1", "1", "1"]}}}}, {"name": "StatefulPartitionedCall/sequential_1/efficientnetlite0/block5a_project_conv/Conv2D", "op": "Conv2D", "input": ["StatefulPartitionedCall/sequential_1/efficientnetlite0/block5a_dwconv/depthwise", "StatefulPartitionedCall/sequential_1/efficientnetlite0/block5a_project_conv/Conv2D_weights"], "device": "/device:CPU:0", "attr": {"padding": {"s": "U0FNRQ=="}, "data_format": {"s": "TkhXQw=="}, "strides": {"list": {"i": ["1", "1", "1", "1"]}}, "use_cudnn_on_gpu": {"b": true}, "T": {"type": "DT_HALF"}, "explicit_paddings": {"list": {}}, "dilations": {"list": {"i": ["1", "1", "1", "1"]}}}}, {"name": "StatefulPartitionedCall/sequential_1/efficientnetlite0/block5a_project_bn/FusedBatchNormV3", "op": "BiasAdd", "input": ["StatefulPartitionedCall/sequential_1/efficientnetlite0/block5a_project_conv/Conv2D", "StatefulPartitionedCall/sequential_1/efficientnetlite0/block5a_project_conv/Conv2D_bn_offset"], "attr": {"data_format": {"s": "TkhXQw=="}, "T": {"type": "DT_HALF"}}}, {"name": "StatefulPartitionedCall/sequential_1/efficientnetlite0/block5b_expand_conv/Conv2D", "op": "Conv2D", "input": ["StatefulPartitionedCall/sequential_1/efficientnetlite0/block5a_project_bn/FusedBatchNormV3", "StatefulPartitionedCall/sequential_1/efficientnetlite0/block5b_expand_conv/Conv2D_weights"], "device": "/device:CPU:0", "attr": {"padding": {"s": "U0FNRQ=="}, "data_format": {"s": "TkhXQw=="}, "use_cudnn_on_gpu": {"b": true}, "strides": {"list": {"i": ["1", "1", "1", "1"]}}, "T": {"type": "DT_HALF"}, "explicit_paddings": {"list": {}}, "dilations": {"list": {"i": ["1", "1", "1", "1"]}}}}, {"name": "StatefulPartitionedCall/sequential_1/efficientnetlite0/block5b_expand_bn/FusedBatchNormV3", "op": "BiasAdd", "input": ["StatefulPartitionedCall/sequential_1/efficientnetlite0/block5b_expand_conv/Conv2D", "StatefulPartitionedCall/sequential_1/efficientnetlite0/block5b_expand_conv/Conv2D_bn_offset"], "attr": {"data_format": {"s": "TkhXQw=="}, "T": {"type": "DT_HALF"}}}, {"name": "StatefulPartitionedCall/sequential_1/efficientnetlite0/block5b_expand_activation/Relu6", "op": "Relu6", "input": ["StatefulPartitionedCall/sequential_1/efficientnetlite0/block5b_expand_bn/FusedBatchNormV3"], "attr": {"T": {"type": "DT_HALF"}}}, {"name": "StatefulPartitionedCall/sequential_1/efficientnetlite0/block5b_dwconv/depthwise", "op": "FusedDepthwiseConv2dNative", "input": ["StatefulPartitionedCall/sequential_1/efficientnetlite0/block5b_expand_activation/Relu6", "StatefulPartitionedCall/sequential_1/efficientnetlite0/block5b_dwconv/depthwise_weights", "StatefulPartitionedCall/sequential_1/efficientnetlite0/block5b_dwconv/depthwise_bn_offset"], "attr": {"padding": {"s": "U0FNRQ=="}, "data_format": {"s": "TkhXQw=="}, "strides": {"list": {"i": ["1", "1", "1", "1"]}}, "num_args": {"i": "1"}, "fused_ops": {"list": {"s": ["Qmlhc0FkZA==", "UmVsdTY="]}}, "T": {"type": "DT_HALF"}, "explicit_paddings": {"list": {}}, "dilations": {"list": {"i": ["1", "1", "1", "1"]}}}}, {"name": "StatefulPartitionedCall/sequential_1/efficientnetlite0/block5b_project_conv/Conv2D", "op": "Conv2D", "input": ["StatefulPartitionedCall/sequential_1/efficientnetlite0/block5b_dwconv/depthwise", "StatefulPartitionedCall/sequential_1/efficientnetlite0/block5b_project_conv/Conv2D_weights"], "device": "/device:CPU:0", "attr": {"padding": {"s": "U0FNRQ=="}, "data_format": {"s": "TkhXQw=="}, "strides": {"list": {"i": ["1", "1", "1", "1"]}}, "use_cudnn_on_gpu": {"b": true}, "T": {"type": "DT_HALF"}, "explicit_paddings": {"list": {}}, "dilations": {"list": {"i": ["1", "1", "1", "1"]}}}}, {"name": "StatefulPartitionedCall/sequential_1/efficientnetlite0/block5b_project_bn/FusedBatchNormV3", "op": "BiasAdd", "input": ["StatefulPartitionedCall/sequential_1/efficientnetlite0/block5b_project_conv/Conv2D", "StatefulPartitionedCall/sequential_1/efficientnetlite0/block5b_project_conv/Conv2D_bn_offset"], "attr": {"data_format": {"s": "TkhXQw=="}, "T": {"type": "DT_HALF"}}}, {"name": "StatefulPartitionedCall/sequential_1/efficientnetlite0/block5b_add/add", "op": "AddV2", "input": ["StatefulPartitionedCall/sequential_1/efficientnetlite0/block5b_project_bn/FusedBatchNormV3", "StatefulPartitionedCall/sequential_1/efficientnetlite0/block5a_project_bn/FusedBatchNormV3"], "attr": {"T": {"type": "DT_HALF"}}}, {"name": "StatefulPartitionedCall/sequential_1/efficientnetlite0/block5c_expand_conv/Conv2D", "op": "Conv2D", "input": ["StatefulPartitionedCall/sequential_1/efficientnetlite0/block5b_add/add", "StatefulPartitionedCall/sequential_1/efficientnetlite0/block5c_expand_conv/Conv2D_weights"], "device": "/device:CPU:0", "attr": {"padding": {"s": "U0FNRQ=="}, "data_format": {"s": "TkhXQw=="}, "strides": {"list": {"i": ["1", "1", "1", "1"]}}, "use_cudnn_on_gpu": {"b": true}, "T": {"type": "DT_HALF"}, "explicit_paddings": {"list": {}}, "dilations": {"list": {"i": ["1", "1", "1", "1"]}}}}, {"name": "StatefulPartitionedCall/sequential_1/efficientnetlite0/block5c_expand_bn/FusedBatchNormV3", "op": "BiasAdd", "input": ["StatefulPartitionedCall/sequential_1/efficientnetlite0/block5c_expand_conv/Conv2D", "StatefulPartitionedCall/sequential_1/efficientnetlite0/block5c_expand_conv/Conv2D_bn_offset"], "attr": {"data_format": {"s": "TkhXQw=="}, "T": {"type": "DT_HALF"}}}, {"name": "StatefulPartitionedCall/sequential_1/efficientnetlite0/block5c_expand_activation/Relu6", "op": "Relu6", "input": ["StatefulPartitionedCall/sequential_1/efficientnetlite0/block5c_expand_bn/FusedBatchNormV3"], "attr": {"T": {"type": "DT_HALF"}}}, {"name": "StatefulPartitionedCall/sequential_1/efficientnetlite0/block5c_dwconv/depthwise", "op": "FusedDepthwiseConv2dNative", "input": ["StatefulPartitionedCall/sequential_1/efficientnetlite0/block5c_expand_activation/Relu6", "StatefulPartitionedCall/sequential_1/efficientnetlite0/block5c_dwconv/depthwise_weights", "StatefulPartitionedCall/sequential_1/efficientnetlite0/block5c_dwconv/depthwise_bn_offset"], "attr": {"padding": {"s": "U0FNRQ=="}, "data_format": {"s": "TkhXQw=="}, "strides": {"list": {"i": ["1", "1", "1", "1"]}}, "num_args": {"i": "1"}, "fused_ops": {"list": {"s": ["Qmlhc0FkZA==", "UmVsdTY="]}}, "T": {"type": "DT_HALF"}, "explicit_paddings": {"list": {}}, "dilations": {"list": {"i": ["1", "1", "1", "1"]}}}}, {"name": "StatefulPartitionedCall/sequential_1/efficientnetlite0/block5c_project_conv/Conv2D", "op": "Conv2D", "input": ["StatefulPartitionedCall/sequential_1/efficientnetlite0/block5c_dwconv/depthwise", "StatefulPartitionedCall/sequential_1/efficientnetlite0/block5c_project_conv/Conv2D_weights"], "device": "/device:CPU:0", "attr": {"padding": {"s": "U0FNRQ=="}, "data_format": {"s": "TkhXQw=="}, "strides": {"list": {"i": ["1", "1", "1", "1"]}}, "use_cudnn_on_gpu": {"b": true}, "T": {"type": "DT_HALF"}, "explicit_paddings": {"list": {}}, "dilations": {"list": {"i": ["1", "1", "1", "1"]}}}}, {"name": "StatefulPartitionedCall/sequential_1/efficientnetlite0/block5c_project_bn/FusedBatchNormV3", "op": "BiasAdd", "input": ["StatefulPartitionedCall/sequential_1/efficientnetlite0/block5c_project_conv/Conv2D", "StatefulPartitionedCall/sequential_1/efficientnetlite0/block5c_project_conv/Conv2D_bn_offset"], "attr": {"data_format": {"s": "TkhXQw=="}, "T": {"type": "DT_HALF"}}}, {"name": "StatefulPartitionedCall/sequential_1/efficientnetlite0/block5c_add/add", "op": "AddV2", "input": ["StatefulPartitionedCall/sequential_1/efficientnetlite0/block5c_project_bn/FusedBatchNormV3", "StatefulPartitionedCall/sequential_1/efficientnetlite0/block5b_add/add"], "attr": {"T": {"type": "DT_HALF"}}}, {"name": "StatefulPartitionedCall/sequential_1/efficientnetlite0/block6a_expand_conv/Conv2D", "op": "Conv2D", "input": ["StatefulPartitionedCall/sequential_1/efficientnetlite0/block5c_add/add", "StatefulPartitionedCall/sequential_1/efficientnetlite0/block6a_expand_conv/Conv2D_weights"], "device": "/device:CPU:0", "attr": {"padding": {"s": "U0FNRQ=="}, "data_format": {"s": "TkhXQw=="}, "use_cudnn_on_gpu": {"b": true}, "strides": {"list": {"i": ["1", "1", "1", "1"]}}, "T": {"type": "DT_HALF"}, "explicit_paddings": {"list": {}}, "dilations": {"list": {"i": ["1", "1", "1", "1"]}}}}, {"name": "StatefulPartitionedCall/sequential_1/efficientnetlite0/block6a_expand_bn/FusedBatchNormV3", "op": "BiasAdd", "input": ["StatefulPartitionedCall/sequential_1/efficientnetlite0/block6a_expand_conv/Conv2D", "StatefulPartitionedCall/sequential_1/efficientnetlite0/block6a_expand_conv/Conv2D_bn_offset"], "attr": {"data_format": {"s": "TkhXQw=="}, "T": {"type": "DT_HALF"}}}, {"name": "StatefulPartitionedCall/sequential_1/efficientnetlite0/block6a_expand_activation/Relu6", "op": "Relu6", "input": ["StatefulPartitionedCall/sequential_1/efficientnetlite0/block6a_expand_bn/FusedBatchNormV3"], "attr": {"T": {"type": "DT_HALF"}}}, {"name": "StatefulPartitionedCall/sequential_1/efficientnetlite0/block6a_dwconv_pad/Pad", "op": "Pad", "input": ["StatefulPartitionedCall/sequential_1/efficientnetlite0/block6a_expand_activation/Relu6", "StatefulPartitionedCall/sequential_1/efficientnetlite0/block6a_dwconv_pad/Pad/paddings"], "attr": {"Tpaddings": {"type": "DT_INT32"}, "T": {"type": "DT_HALF"}}}, {"name": "StatefulPartitionedCall/sequential_1/efficientnetlite0/block6a_dwconv/depthwise", "op": "FusedDepthwiseConv2dNative", "input": ["StatefulPartitionedCall/sequential_1/efficientnetlite0/block6a_dwconv_pad/Pad", "StatefulPartitionedCall/sequential_1/efficientnetlite0/block6a_dwconv/depthwise_weights", "StatefulPartitionedCall/sequential_1/efficientnetlite0/block6a_dwconv/depthwise_bn_offset"], "attr": {"padding": {"s": "VkFMSUQ="}, "data_format": {"s": "TkhXQw=="}, "strides": {"list": {"i": ["1", "2", "2", "1"]}}, "num_args": {"i": "1"}, "fused_ops": {"list": {"s": ["Qmlhc0FkZA==", "UmVsdTY="]}}, "T": {"type": "DT_HALF"}, "explicit_paddings": {"list": {}}, "dilations": {"list": {"i": ["1", "1", "1", "1"]}}}}, {"name": "StatefulPartitionedCall/sequential_1/efficientnetlite0/block6a_project_conv/Conv2D", "op": "Conv2D", "input": ["StatefulPartitionedCall/sequential_1/efficientnetlite0/block6a_dwconv/depthwise", "StatefulPartitionedCall/sequential_1/efficientnetlite0/block6a_project_conv/Conv2D_weights"], "device": "/device:CPU:0", "attr": {"padding": {"s": "U0FNRQ=="}, "data_format": {"s": "TkhXQw=="}, "strides": {"list": {"i": ["1", "1", "1", "1"]}}, "use_cudnn_on_gpu": {"b": true}, "T": {"type": "DT_HALF"}, "explicit_paddings": {"list": {}}, "dilations": {"list": {"i": ["1", "1", "1", "1"]}}}}, {"name": "StatefulPartitionedCall/sequential_1/efficientnetlite0/block6a_project_bn/FusedBatchNormV3", "op": "BiasAdd", "input": ["StatefulPartitionedCall/sequential_1/efficientnetlite0/block6a_project_conv/Conv2D", "StatefulPartitionedCall/sequential_1/efficientnetlite0/block6a_project_conv/Conv2D_bn_offset"], "attr": {"data_format": {"s": "TkhXQw=="}, "T": {"type": "DT_HALF"}}}, {"name": "StatefulPartitionedCall/sequential_1/efficientnetlite0/block6b_expand_conv/Conv2D", "op": "Conv2D", "input": ["StatefulPartitionedCall/sequential_1/efficientnetlite0/block6a_project_bn/FusedBatchNormV3", "StatefulPartitionedCall/sequential_1/efficientnetlite0/block6b_expand_conv/Conv2D_weights"], "device": "/device:CPU:0", "attr": {"padding": {"s": "U0FNRQ=="}, "data_format": {"s": "TkhXQw=="}, "strides": {"list": {"i": ["1", "1", "1", "1"]}}, "use_cudnn_on_gpu": {"b": true}, "T": {"type": "DT_HALF"}, "explicit_paddings": {"list": {}}, "dilations": {"list": {"i": ["1", "1", "1", "1"]}}}}, {"name": "StatefulPartitionedCall/sequential_1/efficientnetlite0/block6b_expand_bn/FusedBatchNormV3", "op": "BiasAdd", "input": ["StatefulPartitionedCall/sequential_1/efficientnetlite0/block6b_expand_conv/Conv2D", "StatefulPartitionedCall/sequential_1/efficientnetlite0/block6b_expand_conv/Conv2D_bn_offset"], "attr": {"data_format": {"s": "TkhXQw=="}, "T": {"type": "DT_HALF"}}}, {"name": "StatefulPartitionedCall/sequential_1/efficientnetlite0/block6b_expand_activation/Relu6", "op": "Relu6", "input": ["StatefulPartitionedCall/sequential_1/efficientnetlite0/block6b_expand_bn/FusedBatchNormV3"], "attr": {"T": {"type": "DT_HALF"}}}, {"name": "StatefulPartitionedCall/sequential_1/efficientnetlite0/block6b_dwconv/depthwise", "op": "FusedDepthwiseConv2dNative", "input": ["StatefulPartitionedCall/sequential_1/efficientnetlite0/block6b_expand_activation/Relu6", "StatefulPartitionedCall/sequential_1/efficientnetlite0/block6b_dwconv/depthwise_weights", "StatefulPartitionedCall/sequential_1/efficientnetlite0/block6b_dwconv/depthwise_bn_offset"], "attr": {"padding": {"s": "U0FNRQ=="}, "data_format": {"s": "TkhXQw=="}, "strides": {"list": {"i": ["1", "1", "1", "1"]}}, "num_args": {"i": "1"}, "fused_ops": {"list": {"s": ["Qmlhc0FkZA==", "UmVsdTY="]}}, "T": {"type": "DT_HALF"}, "explicit_paddings": {"list": {}}, "dilations": {"list": {"i": ["1", "1", "1", "1"]}}}}, {"name": "StatefulPartitionedCall/sequential_1/efficientnetlite0/block6b_project_conv/Conv2D", "op": "Conv2D", "input": ["StatefulPartitionedCall/sequential_1/efficientnetlite0/block6b_dwconv/depthwise", "StatefulPartitionedCall/sequential_1/efficientnetlite0/block6b_project_conv/Conv2D_weights"], "device": "/device:CPU:0", "attr": {"padding": {"s": "U0FNRQ=="}, "data_format": {"s": "TkhXQw=="}, "use_cudnn_on_gpu": {"b": true}, "strides": {"list": {"i": ["1", "1", "1", "1"]}}, "T": {"type": "DT_HALF"}, "explicit_paddings": {"list": {}}, "dilations": {"list": {"i": ["1", "1", "1", "1"]}}}}, {"name": "StatefulPartitionedCall/sequential_1/efficientnetlite0/block6b_project_bn/FusedBatchNormV3", "op": "BiasAdd", "input": ["StatefulPartitionedCall/sequential_1/efficientnetlite0/block6b_project_conv/Conv2D", "StatefulPartitionedCall/sequential_1/efficientnetlite0/block6b_project_conv/Conv2D_bn_offset"], "attr": {"data_format": {"s": "TkhXQw=="}, "T": {"type": "DT_HALF"}}}, {"name": "StatefulPartitionedCall/sequential_1/efficientnetlite0/block6b_add/add", "op": "AddV2", "input": ["StatefulPartitionedCall/sequential_1/efficientnetlite0/block6b_project_bn/FusedBatchNormV3", "StatefulPartitionedCall/sequential_1/efficientnetlite0/block6a_project_bn/FusedBatchNormV3"], "attr": {"T": {"type": "DT_HALF"}}}, {"name": "StatefulPartitionedCall/sequential_1/efficientnetlite0/block6c_expand_conv/Conv2D", "op": "Conv2D", "input": ["StatefulPartitionedCall/sequential_1/efficientnetlite0/block6b_add/add", "StatefulPartitionedCall/sequential_1/efficientnetlite0/block6c_expand_conv/Conv2D_weights"], "device": "/device:CPU:0", "attr": {"padding": {"s": "U0FNRQ=="}, "data_format": {"s": "TkhXQw=="}, "strides": {"list": {"i": ["1", "1", "1", "1"]}}, "use_cudnn_on_gpu": {"b": true}, "T": {"type": "DT_HALF"}, "explicit_paddings": {"list": {}}, "dilations": {"list": {"i": ["1", "1", "1", "1"]}}}}, {"name": "StatefulPartitionedCall/sequential_1/efficientnetlite0/block6c_expand_bn/FusedBatchNormV3", "op": "BiasAdd", "input": ["StatefulPartitionedCall/sequential_1/efficientnetlite0/block6c_expand_conv/Conv2D", "StatefulPartitionedCall/sequential_1/efficientnetlite0/block6c_expand_conv/Conv2D_bn_offset"], "attr": {"data_format": {"s": "TkhXQw=="}, "T": {"type": "DT_HALF"}}}, {"name": "StatefulPartitionedCall/sequential_1/efficientnetlite0/block6c_expand_activation/Relu6", "op": "Relu6", "input": ["StatefulPartitionedCall/sequential_1/efficientnetlite0/block6c_expand_bn/FusedBatchNormV3"], "attr": {"T": {"type": "DT_HALF"}}}, {"name": "StatefulPartitionedCall/sequential_1/efficientnetlite0/block6c_dwconv/depthwise", "op": "FusedDepthwiseConv2dNative", "input": ["StatefulPartitionedCall/sequential_1/efficientnetlite0/block6c_expand_activation/Relu6", "StatefulPartitionedCall/sequential_1/efficientnetlite0/block6c_dwconv/depthwise_weights", "StatefulPartitionedCall/sequential_1/efficientnetlite0/block6c_dwconv/depthwise_bn_offset"], "attr": {"padding": {"s": "U0FNRQ=="}, "data_format": {"s": "TkhXQw=="}, "strides": {"list": {"i": ["1", "1", "1", "1"]}}, "num_args": {"i": "1"}, "fused_ops": {"list": {"s": ["Qmlhc0FkZA==", "UmVsdTY="]}}, "T": {"type": "DT_HALF"}, "explicit_paddings": {"list": {}}, "dilations": {"list": {"i": ["1", "1", "1", "1"]}}}}, {"name": "StatefulPartitionedCall/sequential_1/efficientnetlite0/block6c_project_conv/Conv2D", "op": "Conv2D", "input": ["StatefulPartitionedCall/sequential_1/efficientnetlite0/block6c_dwconv/depthwise", "StatefulPartitionedCall/sequential_1/efficientnetlite0/block6c_project_conv/Conv2D_weights"], "device": "/device:CPU:0", "attr": {"padding": {"s": "U0FNRQ=="}, "data_format": {"s": "TkhXQw=="}, "use_cudnn_on_gpu": {"b": true}, "strides": {"list": {"i": ["1", "1", "1", "1"]}}, "T": {"type": "DT_HALF"}, "explicit_paddings": {"list": {}}, "dilations": {"list": {"i": ["1", "1", "1", "1"]}}}}, {"name": "StatefulPartitionedCall/sequential_1/efficientnetlite0/block6c_project_bn/FusedBatchNormV3", "op": "BiasAdd", "input": ["StatefulPartitionedCall/sequential_1/efficientnetlite0/block6c_project_conv/Conv2D", "StatefulPartitionedCall/sequential_1/efficientnetlite0/block6c_project_conv/Conv2D_bn_offset"], "attr": {"data_format": {"s": "TkhXQw=="}, "T": {"type": "DT_HALF"}}}, {"name": "StatefulPartitionedCall/sequential_1/efficientnetlite0/block6c_add/add", "op": "AddV2", "input": ["StatefulPartitionedCall/sequential_1/efficientnetlite0/block6c_project_bn/FusedBatchNormV3", "StatefulPartitionedCall/sequential_1/efficientnetlite0/block6b_add/add"], "attr": {"T": {"type": "DT_HALF"}}}, {"name": "StatefulPartitionedCall/sequential_1/efficientnetlite0/block6d_expand_conv/Conv2D", "op": "Conv2D", "input": ["StatefulPartitionedCall/sequential_1/efficientnetlite0/block6c_add/add", "StatefulPartitionedCall/sequential_1/efficientnetlite0/block6d_expand_conv/Conv2D_weights"], "device": "/device:CPU:0", "attr": {"padding": {"s": "U0FNRQ=="}, "data_format": {"s": "TkhXQw=="}, "strides": {"list": {"i": ["1", "1", "1", "1"]}}, "use_cudnn_on_gpu": {"b": true}, "T": {"type": "DT_HALF"}, "explicit_paddings": {"list": {}}, "dilations": {"list": {"i": ["1", "1", "1", "1"]}}}}, {"name": "StatefulPartitionedCall/sequential_1/efficientnetlite0/block6d_expand_bn/FusedBatchNormV3", "op": "BiasAdd", "input": ["StatefulPartitionedCall/sequential_1/efficientnetlite0/block6d_expand_conv/Conv2D", "StatefulPartitionedCall/sequential_1/efficientnetlite0/block6d_expand_conv/Conv2D_bn_offset"], "attr": {"data_format": {"s": "TkhXQw=="}, "T": {"type": "DT_HALF"}}}, {"name": "StatefulPartitionedCall/sequential_1/efficientnetlite0/block6d_expand_activation/Relu6", "op": "Relu6", "input": ["StatefulPartitionedCall/sequential_1/efficientnetlite0/block6d_expand_bn/FusedBatchNormV3"], "attr": {"T": {"type": "DT_HALF"}}}, {"name": "StatefulPartitionedCall/sequential_1/efficientnetlite0/block6d_dwconv/depthwise", "op": "FusedDepthwiseConv2dNative", "input": ["StatefulPartitionedCall/sequential_1/efficientnetlite0/block6d_expand_activation/Relu6", "StatefulPartitionedCall/sequential_1/efficientnetlite0/block6d_dwconv/depthwise_weights", "StatefulPartitionedCall/sequential_1/efficientnetlite0/block6d_dwconv/depthwise_bn_offset"], "attr": {"padding": {"s": "U0FNRQ=="}, "data_format": {"s": "TkhXQw=="}, "strides": {"list": {"i": ["1", "1", "1", "1"]}}, "num_args": {"i": "1"}, "fused_ops": {"list": {"s": ["Qmlhc0FkZA==", "UmVsdTY="]}}, "T": {"type": "DT_HALF"}, "explicit_paddings": {"list": {}}, "dilations": {"list": {"i": ["1", "1", "1", "1"]}}}}, {"name": "StatefulPartitionedCall/sequential_1/efficientnetlite0/block6d_project_conv/Conv2D", "op": "Conv2D", "input": ["StatefulPartitionedCall/sequential_1/efficientnetlite0/block6d_dwconv/depthwise", "StatefulPartitionedCall/sequential_1/efficientnetlite0/block6d_project_conv/Conv2D_weights"], "device": "/device:CPU:0", "attr": {"padding": {"s": "U0FNRQ=="}, "data_format": {"s": "TkhXQw=="}, "use_cudnn_on_gpu": {"b": true}, "strides": {"list": {"i": ["1", "1", "1", "1"]}}, "T": {"type": "DT_HALF"}, "explicit_paddings": {"list": {}}, "dilations": {"list": {"i": ["1", "1", "1", "1"]}}}}, {"name": "StatefulPartitionedCall/sequential_1/efficientnetlite0/block6d_project_bn/FusedBatchNormV3", "op": "BiasAdd", "input": ["StatefulPartitionedCall/sequential_1/efficientnetlite0/block6d_project_conv/Conv2D", "StatefulPartitionedCall/sequential_1/efficientnetlite0/block6d_project_conv/Conv2D_bn_offset"], "attr": {"data_format": {"s": "TkhXQw=="}, "T": {"type": "DT_HALF"}}}, {"name": "StatefulPartitionedCall/sequential_1/efficientnetlite0/block6d_add/add", "op": "AddV2", "input": ["StatefulPartitionedCall/sequential_1/efficientnetlite0/block6d_project_bn/FusedBatchNormV3", "StatefulPartitionedCall/sequential_1/efficientnetlite0/block6c_add/add"], "attr": {"T": {"type": "DT_HALF"}}}, {"name": "StatefulPartitionedCall/sequential_1/efficientnetlite0/block7a_expand_conv/Conv2D", "op": "Conv2D", "input": ["StatefulPartitionedCall/sequential_1/efficientnetlite0/block6d_add/add", "StatefulPartitionedCall/sequential_1/efficientnetlite0/block7a_expand_conv/Conv2D_weights"], "device": "/device:CPU:0", "attr": {"padding": {"s": "U0FNRQ=="}, "data_format": {"s": "TkhXQw=="}, "strides": {"list": {"i": ["1", "1", "1", "1"]}}, "use_cudnn_on_gpu": {"b": true}, "T": {"type": "DT_HALF"}, "explicit_paddings": {"list": {}}, "dilations": {"list": {"i": ["1", "1", "1", "1"]}}}}, {"name": "StatefulPartitionedCall/sequential_1/efficientnetlite0/block7a_expand_bn/FusedBatchNormV3", "op": "BiasAdd", "input": ["StatefulPartitionedCall/sequential_1/efficientnetlite0/block7a_expand_conv/Conv2D", "StatefulPartitionedCall/sequential_1/efficientnetlite0/block7a_expand_conv/Conv2D_bn_offset"], "attr": {"data_format": {"s": "TkhXQw=="}, "T": {"type": "DT_HALF"}}}, {"name": "StatefulPartitionedCall/sequential_1/efficientnetlite0/block7a_expand_activation/Relu6", "op": "Relu6", "input": ["StatefulPartitionedCall/sequential_1/efficientnetlite0/block7a_expand_bn/FusedBatchNormV3"], "attr": {"T": {"type": "DT_HALF"}}}, {"name": "StatefulPartitionedCall/sequential_1/efficientnetlite0/block7a_dwconv/depthwise", "op": "FusedDepthwiseConv2dNative", "input": ["StatefulPartitionedCall/sequential_1/efficientnetlite0/block7a_expand_activation/Relu6", "StatefulPartitionedCall/sequential_1/efficientnetlite0/block7a_dwconv/depthwise_weights", "StatefulPartitionedCall/sequential_1/efficientnetlite0/block7a_dwconv/depthwise_bn_offset"], "attr": {"padding": {"s": "U0FNRQ=="}, "data_format": {"s": "TkhXQw=="}, "strides": {"list": {"i": ["1", "1", "1", "1"]}}, "num_args": {"i": "1"}, "fused_ops": {"list": {"s": ["Qmlhc0FkZA==", "UmVsdTY="]}}, "T": {"type": "DT_HALF"}, "explicit_paddings": {"list": {}}, "dilations": {"list": {"i": ["1", "1", "1", "1"]}}}}, {"name": "StatefulPartitionedCall/sequential_1/efficientnetlite0/block7a_project_conv/Conv2D", "op": "Conv2D", "input": ["StatefulPartitionedCall/sequential_1/efficientnetlite0/block7a_dwconv/depthwise", "StatefulPartitionedCall/sequential_1/efficientnetlite0/block7a_project_conv/Conv2D_weights"], "device": "/device:CPU:0", "attr": {"padding": {"s": "U0FNRQ=="}, "data_format": {"s": "TkhXQw=="}, "use_cudnn_on_gpu": {"b": true}, "strides": {"list": {"i": ["1", "1", "1", "1"]}}, "T": {"type": "DT_HALF"}, "explicit_paddings": {"list": {}}, "dilations": {"list": {"i": ["1", "1", "1", "1"]}}}}, {"name": "StatefulPartitionedCall/sequential_1/efficientnetlite0/block7a_project_bn/FusedBatchNormV3", "op": "BiasAdd", "input": ["StatefulPartitionedCall/sequential_1/efficientnetlite0/block7a_project_conv/Conv2D", "StatefulPartitionedCall/sequential_1/efficientnetlite0/block7a_project_conv/Conv2D_bn_offset"], "attr": {"data_format": {"s": "TkhXQw=="}, "T": {"type": "DT_HALF"}}}, {"name": "StatefulPartitionedCall/sequential_1/efficientnetlite0/top_conv/Conv2D", "op": "Conv2D", "input": ["StatefulPartitionedCall/sequential_1/efficientnetlite0/block7a_project_bn/FusedBatchNormV3", "StatefulPartitionedCall/sequential_1/efficientnetlite0/top_conv/Conv2D_weights"], "device": "/device:CPU:0", "attr": {"padding": {"s": "U0FNRQ=="}, "data_format": {"s": "TkhXQw=="}, "use_cudnn_on_gpu": {"b": true}, "strides": {"list": {"i": ["1", "1", "1", "1"]}}, "T": {"type": "DT_HALF"}, "explicit_paddings": {"list": {}}, "dilations": {"list": {"i": ["1", "1", "1", "1"]}}}}, {"name": "StatefulPartitionedCall/sequential_1/efficientnetlite0/top_bn/FusedBatchNormV3", "op": "BiasAdd", "input": ["StatefulPartitionedCall/sequential_1/efficientnetlite0/top_conv/Conv2D", "StatefulPartitionedCall/sequential_1/efficientnetlite0/top_conv/Conv2D_bn_offset"], "attr": {"data_format": {"s": "TkhXQw=="}, "T": {"type": "DT_HALF"}}}, {"name": "StatefulPartitionedCall/sequential_1/efficientnetlite0/top_activation/Relu6", "op": "Relu6", "input": ["StatefulPartitionedCall/sequential_1/efficientnetlite0/top_bn/FusedBatchNormV3"], "attr": {"T": {"type": "DT_HALF"}}}, {"name": "StatefulPartitionedCall/sequential_1/efficientnetlite0/avg_pool/Mean", "op": "Mean", "input": ["StatefulPartitionedCall/sequential_1/efficientnetlite0/top_activation/Relu6", "StatefulPartitionedCall/sequential_1/efficientnetlite0/avg_pool/Mean/reduction_indices"], "attr": {"Tidx": {"type": "DT_INT32"}, "T": {"type": "DT_HALF"}, "keep_dims": {"b": false}}}, {"name": "StatefulPartitionedCall/sequential_1/efficientnetlite0/predictions/MatMul", "op": "MatMul", "input": ["StatefulPartitionedCall/sequential_1/efficientnetlite0/avg_pool/Mean", "StatefulPartitionedCall/sequential_1/efficientnetlite0/predictions/MatMul/Cast"], "device": "/device:CPU:0", "attr": {"transpose_a": {"b": false}, "grad_a": {"b": false}, "T": {"type": "DT_HALF"}, "grad_b": {"b": false}, "transpose_b": {"b": false}}}, {"name": "StatefulPartitionedCall/sequential_1/efficientnetlite0/predictions/BiasAdd", "op": "BiasAdd", "input": ["StatefulPartitionedCall/sequential_1/efficientnetlite0/predictions/MatMul", "StatefulPartitionedCall/sequential_1/efficientnetlite0/predictions/BiasAdd/Cast"], "attr": {"data_format": {"s": "TkhXQw=="}, "T": {"type": "DT_HALF"}}}, {"name": "StatefulPartitionedCall/sequential_1/efficientnetlite0/predictions/Softmax", "op": "Softmax", "input": ["StatefulPartitionedCall/sequential_1/efficientnetlite0/predictions/BiasAdd"], "attr": {"T": {"type": "DT_HALF"}}}, {"name": "Identity", "op": "Identity", "input": ["StatefulPartitionedCall/sequential_1/efficientnetlite0/predictions/Softmax"], "attr": {"T": {"type": "DT_HALF"}}}], "library": {}, "versions": {"producer": 2129}}, "weightsManifest": [{"paths": ["group1-shard1of6.bin", "group1-shard2of6.bin", "group1-shard3of6.bin", "group1-shard4of6.bin", "group1-shard5of6.bin", "group1-shard6of6.bin"], "weights": [{"name": "StatefulPartitionedCall/sequential_1/preprocess_tf/PartitionedCall/Const", "shape": [4], "dtype": "int32"}, {"name": "StatefulPartitionedCall/sequential_1/preprocess_tf/PartitionedCall/resize/size", "shape": [2], "dtype": "int32"}, {"name": "StatefulPartitionedCall/sequential_1/efficientnetlite0/stem_conv_pad/Pad/paddings", "shape": [4, 2], "dtype": "int32"}, {"name": "StatefulPartitionedCall/sequential_1/efficientnetlite0/block2a_dwconv_pad/Pad/paddings", "shape": [4, 2], "dtype": "int32"}, {"name": "StatefulPartitionedCall/sequential_1/efficientnetlite0/block3a_dwconv_pad/Pad/paddings", "shape": [4, 2], "dtype": "int32"}, {"name": "StatefulPartitionedCall/sequential_1/efficientnetlite0/block4a_dwconv_pad/Pad/paddings", "shape": [4, 2], "dtype": "int32"}, {"name": "StatefulPartitionedCall/sequential_1/efficientnetlite0/block6a_dwconv_pad/Pad/paddings", "shape": [4, 2], "dtype": "int32"}, {"name": "StatefulPartitionedCall/sequential_1/efficientnetlite0/avg_pool/Mean/reduction_indices", "shape": [2], "dtype": "int32"}, {"name": "StatefulPartitionedCall/sequential_1/efficientnetlite0/predictions/MatMul/Cast", "shape": [1280, 6507], "dtype": "float32", "quantization": {"dtype": "float16", "original_dtype": "float32"}}, {"name": "StatefulPartitionedCall/sequential_1/efficientnetlite0/predictions/BiasAdd/Cast", "shape": [6507], "dtype": "float32", "quantization": {"dtype": "float16", "original_dtype": "float32"}}, {"name": "StatefulPartitionedCall/sequential_1/efficientnetlite0/stem_conv/Conv2D_weights", "shape": [3, 3, 1, 32], "dtype": "float32", "quantization": {"dtype": "float16", "original_dtype": "float32"}}, {"name": "StatefulPartitionedCall/sequential_1/efficientnetlite0/stem_conv/Conv2D_bn_offset", "shape": [32], "dtype": "float32", "quantization": {"dtype": "float16", "original_dtype": "float32"}}, {"name": "StatefulPartitionedCall/sequential_1/efficientnetlite0/block1a_dwconv/depthwise_weights", "shape": [3, 3, 32, 1], "dtype": "float32", "quantization": {"dtype": "float16", "original_dtype": "float32"}}, {"name": "StatefulPartitionedCall/sequential_1/efficientnetlite0/block1a_dwconv/depthwise_bn_offset", "shape": [32], "dtype": "float32", "quantization": {"dtype": "float16", "original_dtype": "float32"}}, {"name": "StatefulPartitionedCall/sequential_1/efficientnetlite0/block1a_project_conv/Conv2D_weights", "shape": [1, 1, 32, 16], "dtype": "float32", "quantization": {"dtype": "float16", "original_dtype": "float32"}}, {"name": "StatefulPartitionedCall/sequential_1/efficientnetlite0/block1a_project_conv/Conv2D_bn_offset", "shape": [16], "dtype": "float32", "quantization": {"dtype": "float16", "original_dtype": "float32"}}, {"name": "StatefulPartitionedCall/sequential_1/efficientnetlite0/block2a_expand_conv/Conv2D_weights", "shape": [1, 1, 16, 96], "dtype": "float32", "quantization": {"dtype": "float16", "original_dtype": "float32"}}, {"name": "StatefulPartitionedCall/sequential_1/efficientnetlite0/block2a_expand_conv/Conv2D_bn_offset", "shape": [96], "dtype": "float32", "quantization": {"dtype": "float16", "original_dtype": "float32"}}, {"name": "StatefulPartitionedCall/sequential_1/efficientnetlite0/block2a_dwconv/depthwise_weights", "shape": [3, 3, 96, 1], "dtype": "float32", "quantization": {"dtype": "float16", "original_dtype": "float32"}}, {"name": "StatefulPartitionedCall/sequential_1/efficientnetlite0/block2a_dwconv/depthwise_bn_offset", "shape": [96], "dtype": "float32", "quantization": {"dtype": "float16", "original_dtype": "float32"}}, {"name": "StatefulPartitionedCall/sequential_1/efficientnetlite0/block2a_project_conv/Conv2D_weights", "shape": [1, 1, 96, 24], "dtype": "float32", "quantization": {"dtype": "float16", "original_dtype": "float32"}}, {"name": "StatefulPartitionedCall/sequential_1/efficientnetlite0/block2a_project_conv/Conv2D_bn_offset", "shape": [24], "dtype": "float32", "quantization": {"dtype": "float16", "original_dtype": "float32"}}, {"name": "StatefulPartitionedCall/sequential_1/efficientnetlite0/block2b_expand_conv/Conv2D_weights", "shape": [1, 1, 24, 144], "dtype": "float32", "quantization": {"dtype": "float16", "original_dtype": "float32"}}, {"name": "StatefulPartitionedCall/sequential_1/efficientnetlite0/block2b_expand_conv/Conv2D_bn_offset", "shape": [144], "dtype": "float32", "quantization": {"dtype": "float16", "original_dtype": "float32"}}, {"name": "StatefulPartitionedCall/sequential_1/efficientnetlite0/block2b_dwconv/depthwise_weights", "shape": [3, 3, 144, 1], "dtype": "float32", "quantization": {"dtype": "float16", "original_dtype": "float32"}}, {"name": "StatefulPartitionedCall/sequential_1/efficientnetlite0/block2b_dwconv/depthwise_bn_offset", "shape": [144], "dtype": "float32", "quantization": {"dtype": "float16", "original_dtype": "float32"}}, {"name": "StatefulPartitionedCall/sequential_1/efficientnetlite0/block2b_project_conv/Conv2D_weights", "shape": [1, 1, 144, 24], "dtype": "float32", "quantization": {"dtype": "float16", "original_dtype": "float32"}}, {"name": "StatefulPartitionedCall/sequential_1/efficientnetlite0/block2b_project_conv/Conv2D_bn_offset", "shape": [24], "dtype": "float32", "quantization": {"dtype": "float16", "original_dtype": "float32"}}, {"name": "StatefulPartitionedCall/sequential_1/efficientnetlite0/block3a_expand_conv/Conv2D_weights", "shape": [1, 1, 24, 144], "dtype": "float32", "quantization": {"dtype": "float16", "original_dtype": "float32"}}, {"name": "StatefulPartitionedCall/sequential_1/efficientnetlite0/block3a_expand_conv/Conv2D_bn_offset", "shape": [144], "dtype": "float32", "quantization": {"dtype": "float16", "original_dtype": "float32"}}, {"name": "StatefulPartitionedCall/sequential_1/efficientnetlite0/block3a_dwconv/depthwise_weights", "shape": [5, 5, 144, 1], "dtype": "float32", "quantization": {"dtype": "float16", "original_dtype": "float32"}}, {"name": "StatefulPartitionedCall/sequential_1/efficientnetlite0/block3a_dwconv/depthwise_bn_offset", "shape": [144], "dtype": "float32", "quantization": {"dtype": "float16", "original_dtype": "float32"}}, {"name": "StatefulPartitionedCall/sequential_1/efficientnetlite0/block3a_project_conv/Conv2D_weights", "shape": [1, 1, 144, 40], "dtype": "float32", "quantization": {"dtype": "float16", "original_dtype": "float32"}}, {"name": "StatefulPartitionedCall/sequential_1/efficientnetlite0/block3a_project_conv/Conv2D_bn_offset", "shape": [40], "dtype": "float32", "quantization": {"dtype": "float16", "original_dtype": "float32"}}, {"name": "StatefulPartitionedCall/sequential_1/efficientnetlite0/block3b_expand_conv/Conv2D_weights", "shape": [1, 1, 40, 240], "dtype": "float32", "quantization": {"dtype": "float16", "original_dtype": "float32"}}, {"name": "StatefulPartitionedCall/sequential_1/efficientnetlite0/block3b_expand_conv/Conv2D_bn_offset", "shape": [240], "dtype": "float32", "quantization": {"dtype": "float16", "original_dtype": "float32"}}, {"name": "StatefulPartitionedCall/sequential_1/efficientnetlite0/block3b_dwconv/depthwise_weights", "shape": [5, 5, 240, 1], "dtype": "float32", "quantization": {"dtype": "float16", "original_dtype": "float32"}}, {"name": "StatefulPartitionedCall/sequential_1/efficientnetlite0/block3b_dwconv/depthwise_bn_offset", "shape": [240], "dtype": "float32", "quantization": {"dtype": "float16", "original_dtype": "float32"}}, {"name": "StatefulPartitionedCall/sequential_1/efficientnetlite0/block3b_project_conv/Conv2D_weights", "shape": [1, 1, 240, 40], "dtype": "float32", "quantization": {"dtype": "float16", "original_dtype": "float32"}}, {"name": "StatefulPartitionedCall/sequential_1/efficientnetlite0/block3b_project_conv/Conv2D_bn_offset", "shape": [40], "dtype": "float32", "quantization": {"dtype": "float16", "original_dtype": "float32"}}, {"name": "StatefulPartitionedCall/sequential_1/efficientnetlite0/block4a_expand_conv/Conv2D_weights", "shape": [1, 1, 40, 240], "dtype": "float32", "quantization": {"dtype": "float16", "original_dtype": "float32"}}, {"name": "StatefulPartitionedCall/sequential_1/efficientnetlite0/block4a_expand_conv/Conv2D_bn_offset", "shape": [240], "dtype": "float32", "quantization": {"dtype": "float16", "original_dtype": "float32"}}, {"name": "StatefulPartitionedCall/sequential_1/efficientnetlite0/block4a_dwconv/depthwise_weights", "shape": [3, 3, 240, 1], "dtype": "float32", "quantization": {"dtype": "float16", "original_dtype": "float32"}}, {"name": "StatefulPartitionedCall/sequential_1/efficientnetlite0/block4a_dwconv/depthwise_bn_offset", "shape": [240], "dtype": "float32", "quantization": {"dtype": "float16", "original_dtype": "float32"}}, {"name": "StatefulPartitionedCall/sequential_1/efficientnetlite0/block4a_project_conv/Conv2D_weights", "shape": [1, 1, 240, 80], "dtype": "float32", "quantization": {"dtype": "float16", "original_dtype": "float32"}}, {"name": "StatefulPartitionedCall/sequential_1/efficientnetlite0/block4a_project_conv/Conv2D_bn_offset", "shape": [80], "dtype": "float32", "quantization": {"dtype": "float16", "original_dtype": "float32"}}, {"name": "StatefulPartitionedCall/sequential_1/efficientnetlite0/block4b_expand_conv/Conv2D_weights", "shape": [1, 1, 80, 480], "dtype": "float32", "quantization": {"dtype": "float16", "original_dtype": "float32"}}, {"name": "StatefulPartitionedCall/sequential_1/efficientnetlite0/block4b_expand_conv/Conv2D_bn_offset", "shape": [480], "dtype": "float32", "quantization": {"dtype": "float16", "original_dtype": "float32"}}, {"name": "StatefulPartitionedCall/sequential_1/efficientnetlite0/block4b_dwconv/depthwise_weights", "shape": [3, 3, 480, 1], "dtype": "float32", "quantization": {"dtype": "float16", "original_dtype": "float32"}}, {"name": "StatefulPartitionedCall/sequential_1/efficientnetlite0/block4b_dwconv/depthwise_bn_offset", "shape": [480], "dtype": "float32", "quantization": {"dtype": "float16", "original_dtype": "float32"}}, {"name": "StatefulPartitionedCall/sequential_1/efficientnetlite0/block4b_project_conv/Conv2D_weights", "shape": [1, 1, 480, 80], "dtype": "float32", "quantization": {"dtype": "float16", "original_dtype": "float32"}}, {"name": "StatefulPartitionedCall/sequential_1/efficientnetlite0/block4b_project_conv/Conv2D_bn_offset", "shape": [80], "dtype": "float32", "quantization": {"dtype": "float16", "original_dtype": "float32"}}, {"name": "StatefulPartitionedCall/sequential_1/efficientnetlite0/block4c_expand_conv/Conv2D_weights", "shape": [1, 1, 80, 480], "dtype": "float32", "quantization": {"dtype": "float16", "original_dtype": "float32"}}, {"name": "StatefulPartitionedCall/sequential_1/efficientnetlite0/block4c_expand_conv/Conv2D_bn_offset", "shape": [480], "dtype": "float32", "quantization": {"dtype": "float16", "original_dtype": "float32"}}, {"name": "StatefulPartitionedCall/sequential_1/efficientnetlite0/block4c_dwconv/depthwise_weights", "shape": [3, 3, 480, 1], "dtype": "float32", "quantization": {"dtype": "float16", "original_dtype": "float32"}}, {"name": "StatefulPartitionedCall/sequential_1/efficientnetlite0/block4c_dwconv/depthwise_bn_offset", "shape": [480], "dtype": "float32", "quantization": {"dtype": "float16", "original_dtype": "float32"}}, {"name": "StatefulPartitionedCall/sequential_1/efficientnetlite0/block4c_project_conv/Conv2D_weights", "shape": [1, 1, 480, 80], "dtype": "float32", "quantization": {"dtype": "float16", "original_dtype": "float32"}}, {"name": "StatefulPartitionedCall/sequential_1/efficientnetlite0/block4c_project_conv/Conv2D_bn_offset", "shape": [80], "dtype": "float32", "quantization": {"dtype": "float16", "original_dtype": "float32"}}, {"name": "StatefulPartitionedCall/sequential_1/efficientnetlite0/block5a_expand_conv/Conv2D_weights", "shape": [1, 1, 80, 480], "dtype": "float32", "quantization": {"dtype": "float16", "original_dtype": "float32"}}, {"name": "StatefulPartitionedCall/sequential_1/efficientnetlite0/block5a_expand_conv/Conv2D_bn_offset", "shape": [480], "dtype": "float32", "quantization": {"dtype": "float16", "original_dtype": "float32"}}, {"name": "StatefulPartitionedCall/sequential_1/efficientnetlite0/block5a_dwconv/depthwise_weights", "shape": [5, 5, 480, 1], "dtype": "float32", "quantization": {"dtype": "float16", "original_dtype": "float32"}}, {"name": "StatefulPartitionedCall/sequential_1/efficientnetlite0/block5a_dwconv/depthwise_bn_offset", "shape": [480], "dtype": "float32", "quantization": {"dtype": "float16", "original_dtype": "float32"}}, {"name": "StatefulPartitionedCall/sequential_1/efficientnetlite0/block5a_project_conv/Conv2D_weights", "shape": [1, 1, 480, 112], "dtype": "float32", "quantization": {"dtype": "float16", "original_dtype": "float32"}}, {"name": "StatefulPartitionedCall/sequential_1/efficientnetlite0/block5a_project_conv/Conv2D_bn_offset", "shape": [112], "dtype": "float32", "quantization": {"dtype": "float16", "original_dtype": "float32"}}, {"name": "StatefulPartitionedCall/sequential_1/efficientnetlite0/block5b_expand_conv/Conv2D_weights", "shape": [1, 1, 112, 672], "dtype": "float32", "quantization": {"dtype": "float16", "original_dtype": "float32"}}, {"name": "StatefulPartitionedCall/sequential_1/efficientnetlite0/block5b_expand_conv/Conv2D_bn_offset", "shape": [672], "dtype": "float32", "quantization": {"dtype": "float16", "original_dtype": "float32"}}, {"name": "StatefulPartitionedCall/sequential_1/efficientnetlite0/block5b_dwconv/depthwise_weights", "shape": [5, 5, 672, 1], "dtype": "float32", "quantization": {"dtype": "float16", "original_dtype": "float32"}}, {"name": "StatefulPartitionedCall/sequential_1/efficientnetlite0/block5b_dwconv/depthwise_bn_offset", "shape": [672], "dtype": "float32", "quantization": {"dtype": "float16", "original_dtype": "float32"}}, {"name": "StatefulPartitionedCall/sequential_1/efficientnetlite0/block5b_project_conv/Conv2D_weights", "shape": [1, 1, 672, 112], "dtype": "float32", "quantization": {"dtype": "float16", "original_dtype": "float32"}}, {"name": "StatefulPartitionedCall/sequential_1/efficientnetlite0/block5b_project_conv/Conv2D_bn_offset", "shape": [112], "dtype": "float32", "quantization": {"dtype": "float16", "original_dtype": "float32"}}, {"name": "StatefulPartitionedCall/sequential_1/efficientnetlite0/block5c_expand_conv/Conv2D_weights", "shape": [1, 1, 112, 672], "dtype": "float32", "quantization": {"dtype": "float16", "original_dtype": "float32"}}, {"name": "StatefulPartitionedCall/sequential_1/efficientnetlite0/block5c_expand_conv/Conv2D_bn_offset", "shape": [672], "dtype": "float32", "quantization": {"dtype": "float16", "original_dtype": "float32"}}, {"name": "StatefulPartitionedCall/sequential_1/efficientnetlite0/block5c_dwconv/depthwise_weights", "shape": [5, 5, 672, 1], "dtype": "float32", "quantization": {"dtype": "float16", "original_dtype": "float32"}}, {"name": "StatefulPartitionedCall/sequential_1/efficientnetlite0/block5c_dwconv/depthwise_bn_offset", "shape": [672], "dtype": "float32", "quantization": {"dtype": "float16", "original_dtype": "float32"}}, {"name": "StatefulPartitionedCall/sequential_1/efficientnetlite0/block5c_project_conv/Conv2D_weights", "shape": [1, 1, 672, 112], "dtype": "float32", "quantization": {"dtype": "float16", "original_dtype": "float32"}}, {"name": "StatefulPartitionedCall/sequential_1/efficientnetlite0/block5c_project_conv/Conv2D_bn_offset", "shape": [112], "dtype": "float32", "quantization": {"dtype": "float16", "original_dtype": "float32"}}, {"name": "StatefulPartitionedCall/sequential_1/efficientnetlite0/block6a_expand_conv/Conv2D_weights", "shape": [1, 1, 112, 672], "dtype": "float32", "quantization": {"dtype": "float16", "original_dtype": "float32"}}, {"name": "StatefulPartitionedCall/sequential_1/efficientnetlite0/block6a_expand_conv/Conv2D_bn_offset", "shape": [672], "dtype": "float32", "quantization": {"dtype": "float16", "original_dtype": "float32"}}, {"name": "StatefulPartitionedCall/sequential_1/efficientnetlite0/block6a_dwconv/depthwise_weights", "shape": [5, 5, 672, 1], "dtype": "float32", "quantization": {"dtype": "float16", "original_dtype": "float32"}}, {"name": "StatefulPartitionedCall/sequential_1/efficientnetlite0/block6a_dwconv/depthwise_bn_offset", "shape": [672], "dtype": "float32", "quantization": {"dtype": "float16", "original_dtype": "float32"}}, {"name": "StatefulPartitionedCall/sequential_1/efficientnetlite0/block6a_project_conv/Conv2D_weights", "shape": [1, 1, 672, 192], "dtype": "float32", "quantization": {"dtype": "float16", "original_dtype": "float32"}}, {"name": "StatefulPartitionedCall/sequential_1/efficientnetlite0/block6a_project_conv/Conv2D_bn_offset", "shape": [192], "dtype": "float32", "quantization": {"dtype": "float16", "original_dtype": "float32"}}, {"name": "StatefulPartitionedCall/sequential_1/efficientnetlite0/block6b_expand_conv/Conv2D_weights", "shape": [1, 1, 192, 1152], "dtype": "float32", "quantization": {"dtype": "float16", "original_dtype": "float32"}}, {"name": "StatefulPartitionedCall/sequential_1/efficientnetlite0/block6b_expand_conv/Conv2D_bn_offset", "shape": [1152], "dtype": "float32", "quantization": {"dtype": "float16", "original_dtype": "float32"}}, {"name": "StatefulPartitionedCall/sequential_1/efficientnetlite0/block6b_dwconv/depthwise_weights", "shape": [5, 5, 1152, 1], "dtype": "float32", "quantization": {"dtype": "float16", "original_dtype": "float32"}}, {"name": "StatefulPartitionedCall/sequential_1/efficientnetlite0/block6b_dwconv/depthwise_bn_offset", "shape": [1152], "dtype": "float32", "quantization": {"dtype": "float16", "original_dtype": "float32"}}, {"name": "StatefulPartitionedCall/sequential_1/efficientnetlite0/block6b_project_conv/Conv2D_weights", "shape": [1, 1, 1152, 192], "dtype": "float32", "quantization": {"dtype": "float16", "original_dtype": "float32"}}, {"name": "StatefulPartitionedCall/sequential_1/efficientnetlite0/block6b_project_conv/Conv2D_bn_offset", "shape": [192], "dtype": "float32", "quantization": {"dtype": "float16", "original_dtype": "float32"}}, {"name": "StatefulPartitionedCall/sequential_1/efficientnetlite0/block6c_expand_conv/Conv2D_weights", "shape": [1, 1, 192, 1152], "dtype": "float32", "quantization": {"dtype": "float16", "original_dtype": "float32"}}, {"name": "StatefulPartitionedCall/sequential_1/efficientnetlite0/block6c_expand_conv/Conv2D_bn_offset", "shape": [1152], "dtype": "float32", "quantization": {"dtype": "float16", "original_dtype": "float32"}}, {"name": "StatefulPartitionedCall/sequential_1/efficientnetlite0/block6c_dwconv/depthwise_weights", "shape": [5, 5, 1152, 1], "dtype": "float32", "quantization": {"dtype": "float16", "original_dtype": "float32"}}, {"name": "StatefulPartitionedCall/sequential_1/efficientnetlite0/block6c_dwconv/depthwise_bn_offset", "shape": [1152], "dtype": "float32", "quantization": {"dtype": "float16", "original_dtype": "float32"}}, {"name": "StatefulPartitionedCall/sequential_1/efficientnetlite0/block6c_project_conv/Conv2D_weights", "shape": [1, 1, 1152, 192], "dtype": "float32", "quantization": {"dtype": "float16", "original_dtype": "float32"}}, {"name": "StatefulPartitionedCall/sequential_1/efficientnetlite0/block6c_project_conv/Conv2D_bn_offset", "shape": [192], "dtype": "float32", "quantization": {"dtype": "float16", "original_dtype": "float32"}}, {"name": "StatefulPartitionedCall/sequential_1/efficientnetlite0/block6d_expand_conv/Conv2D_weights", "shape": [1, 1, 192, 1152], "dtype": "float32", "quantization": {"dtype": "float16", "original_dtype": "float32"}}, {"name": "StatefulPartitionedCall/sequential_1/efficientnetlite0/block6d_expand_conv/Conv2D_bn_offset", "shape": [1152], "dtype": "float32", "quantization": {"dtype": "float16", "original_dtype": "float32"}}, {"name": "StatefulPartitionedCall/sequential_1/efficientnetlite0/block6d_dwconv/depthwise_weights", "shape": [5, 5, 1152, 1], "dtype": "float32", "quantization": {"dtype": "float16", "original_dtype": "float32"}}, {"name": "StatefulPartitionedCall/sequential_1/efficientnetlite0/block6d_dwconv/depthwise_bn_offset", "shape": [1152], "dtype": "float32", "quantization": {"dtype": "float16", "original_dtype": "float32"}}, {"name": "StatefulPartitionedCall/sequential_1/efficientnetlite0/block6d_project_conv/Conv2D_weights", "shape": [1, 1, 1152, 192], "dtype": "float32", "quantization": {"dtype": "float16", "original_dtype": "float32"}}, {"name": "StatefulPartitionedCall/sequential_1/efficientnetlite0/block6d_project_conv/Conv2D_bn_offset", "shape": [192], "dtype": "float32", "quantization": {"dtype": "float16", "original_dtype": "float32"}}, {"name": "StatefulPartitionedCall/sequential_1/efficientnetlite0/block7a_expand_conv/Conv2D_weights", "shape": [1, 1, 192, 1152], "dtype": "float32", "quantization": {"dtype": "float16", "original_dtype": "float32"}}, {"name": "StatefulPartitionedCall/sequential_1/efficientnetlite0/block7a_expand_conv/Conv2D_bn_offset", "shape": [1152], "dtype": "float32", "quantization": {"dtype": "float16", "original_dtype": "float32"}}, {"name": "StatefulPartitionedCall/sequential_1/efficientnetlite0/block7a_dwconv/depthwise_weights", "shape": [3, 3, 1152, 1], "dtype": "float32", "quantization": {"dtype": "float16", "original_dtype": "float32"}}, {"name": "StatefulPartitionedCall/sequential_1/efficientnetlite0/block7a_dwconv/depthwise_bn_offset", "shape": [1152], "dtype": "float32", "quantization": {"dtype": "float16", "original_dtype": "float32"}}, {"name": "StatefulPartitionedCall/sequential_1/efficientnetlite0/block7a_project_conv/Conv2D_weights", "shape": [1, 1, 1152, 320], "dtype": "float32", "quantization": {"dtype": "float16", "original_dtype": "float32"}}, {"name": "StatefulPartitionedCall/sequential_1/efficientnetlite0/block7a_project_conv/Conv2D_bn_offset", "shape": [320], "dtype": "float32", "quantization": {"dtype": "float16", "original_dtype": "float32"}}, {"name": "StatefulPartitionedCall/sequential_1/efficientnetlite0/top_conv/Conv2D_weights", "shape": [1, 1, 320, 1280], "dtype": "float32", "quantization": {"dtype": "float16", "original_dtype": "float32"}}, {"name": "StatefulPartitionedCall/sequential_1/efficientnetlite0/top_conv/Conv2D_bn_offset", "shape": [1280], "dtype": "float32", "quantization": {"dtype": "float16", "original_dtype": "float32"}}]}]}